result/flat_rl/model/final_model.pth (torch, 839099 bytes, 45 tensors)

backbone.0.weight f4 [128, 55]
000000 cc 4f a0 be e4 02 84 3d 58 64 0e 3c d3 80 8d be
       -0.3131088 0.06445864 0.008690916 -0.27637348
000010 86 82 56 3e 2d a7 2b 3c af a5 b5 bd 39 c2 c2 3d
       0.20948228 0.0104768695 -0.08869492 0.09509701
000020 9f bf 93 bc 63 24 16 be 9d 54 2e 3d c9 8a 69 be
       -0.018035708 -0.14662318 0.042561162 -0.22806849
000030 1f ba 3e 3e 19 4a 77 bc 46 ea 99 bd f2 d0 0c 3e
       0.18625687 -0.01509335 -0.07515387 0.13751581
000040 0b 7c da bd f2 19 33 3e 10 3a c7 bc 53 a4 75 3c
       -0.106681906 0.17490366 -0.024319679 0.014992791
000050 da 67 22 3c e2 c1 e2 bb 74 c4 ad 3d ff f0 89 bd
       0.009912455 -0.0069200853 0.08484736 -0.067354195
000060 00 c8 71 be 4e 92 bb 3d ec 13 72 bd 5d ad 44 be
       -0.2361145 0.09158765 -0.05910103 -0.19206758
000070 20 b3 e9 3b 18 31 27 be bb 54 c7 bd 33 35 fd 3c
       0.007131949 -0.16327322 -0.09732958 0.030909156
000080 80 94 e4 3d 9b 68 7c bc 0f ef 75 bd b5 3a 8d 3c
       0.111611366 -0.015405799 -0.060042437 0.017239908
000090 f9 53 12 3e c0 74 ef 3d 4c ce fd 3d 3a 15 7e 3e
       0.14289846 0.1169219 0.12392864 0.24812785
0000a0 fb cc 9e 3d 61 10 b3 bc 9e f8 f8 3d de 18 85 3d
       0.07753941 -0.021858396 0.12156795 0.06498884
0000b0 32 29 27 3e 60 c4 e8 bc 18 09 20 3d 5b 06 13 3d
       0.16324309 -0.028413951 0.039071172 0.035894733
0000c0 84 33 c7 3d 7a a1 2b bd 06 ac 22 bd bc af 74 be
       0.09726623 -0.041902043 -0.039714836 -0.23895162
0000d0 d4 eb 67 3e 77 99 a8 bd ee a0 e5 3d 9b da 0b 3d
       0.22648555 -0.08232396 0.112123355 0.034144025
0000e0 f9 f2 89 3d d6 60 24 3e 7b d7 ad bc 95 6b b6 bd
       0.067357965 0.16052565 -0.021220913 -0.089072384
0000f0 12 40 4b 3c 06 c9 e6 3c bc eb 46 bd a8 9f 8c 3c
       0.012405412 0.028172027 -0.048564658 0.017165974
000100 ff 5f 80 3d 20 2b 8a be c0 29 d2 3d 75 b6 81 be
       0.0626831 -0.26986027 0.102618694 -0.25334516
000110 e0 20 a9 3d d2 e1 2f be ab 5c 04 3e ff 78 12 3e
       0.082582235 -0.17175987 0.12925975 0.14303969
000120 48 62 30 3d cb 79 1d bd fc d1 9f 3d 93 75 6b be
       0.04306248 -0.03844623 0.07803723 -0.2299407
000130 3d cd a7 3d 04 0a 22 3d 33 3f 05 3d 7a e6 bd bc
       0.08193443 0.039560333 0.032530975 -0.023181189
000140 dd 21 54 3e 93 bc c2 3d 27 55 dd bd 98 2b 37 bd
       0.20716043 0.09508624 -0.10807257 -0.04471931
000150 9b c7 c1 3d 91 e0 6a 3d 96 1a e9 bc b2 ad 85 3e
       0.094619 0.05734307 -0.02845506 0.26109082
000160 53 3a ba bd ac 4d 31 bb 6a 55 a4 bc 01 09 99 be
       -0.09093156 -0.0027054353 -0.02006026 -0.29889682
000170 0c 2f e2 3d 4b 7b 49 be ee 91 3e 3d b6 44 a1 3d
       0.1104413 -0.19675939 0.04652589 0.07874434
000180 7a af a4 bc d4 c7 53 3d 62 c1 0e ba 13 5e 07 3e
       -0.020103205 0.051704243 -0.00054456864 0.1321948
000190 e3 46 b1 bd f4 52 7b 3e 8a 8c 0e be 36 79 80 bd
       -0.08656099 0.24543363 -0.13920799 -0.06273119
0001a0 b5 18 03 be dd ea be 3d e6 ce 09 3d 14 a4 68 3d
       -0.12802394 0.0932214 0.03364458 0.056797102
0001b0 f0 c2 0e 3e 16 eb 98 bb fc 78 90 3e 1d 9e 61 3e
       0.1394155 -0.0046666963 0.28217304 0.22032972
0001c0 a8 cb a4 bd 44 00 fa 3a e4 1c 44 bd 8a 9e 10 3e
       -0.08046657 0.0019073565 -0.047879115 0.14122978
0001d0 6c 70 24 be 03 36 2c 3e cd 25 08 be 3a 86 a9 be
       -0.1605851 0.16817479 -0.1329567 -0.3311022
0001e0 40 1e 8f 3a 97 11 7a 3d 9b f6 02 3e 05 a4 86 3e
       0.0010919049 0.06105193 0.12789385 0.26297012
0001f0 7b a5 f4 bd 48 6b be 3b 80 6c ce 3d 3c 66 b9 3d
       -0.119456254 0.0058111288 0.100792885 0.09052703
000200 3b 72 14 bd 16 e5 bc 3d b9 09 19 bc 27 d8 08 bc
       -0.03624175 0.09223382 -0.009340697 -0.008352316
000210 09 23 a7 3d 99 e3 a6 bc 03 6e ae 3c 3c f5 5b 3d
       0.08160979 -0.020372199 0.021292692 0.05370067
000220 55 a2 35 bc 89 39 85 3e c2 57 58 3d 7d ff 90 be
       -0.011086066 0.26020458 0.052818067 -0.28319922
000230 17 17 dc bd c5 b2 b0 3d 30 25 1f 3e b1 cd 4d 3a
       -0.107465915 0.086278476 0.1554153 0.000785078
000240 fb ec f4 bd f4 13 6a 3d 15 40 39 3c 2f 6e 68 bd
       -0.11959263 0.057147935 0.011306782 -0.056745704
000250 22 67 81 be 93 59 01 be 20 f6 90 be 19 85 93 bd
       -0.25273997 -0.12631826 -0.28312778 -0.07203121
000260 81 8b 16 3e e4 89 07 bd 2b 06 ab bd cb 65 a4 3c
       0.14701654 -0.033090487 -0.08350786 0.02006807
000270 5d a7 3e bc b8 dc fd 3c f3 dd 12 be 9f bd 68 bd
       -0.011636582 0.030989036 -0.1434248 -0.05682146
000280 85 73 e2 bd 8f b9 bf bd 07 f9 0a 3d f4 cc 5f 3e
       -0.1105719 -0.09361564 0.033928897 0.21855527
000290 21 3e b3 bd c7 3b cd bd 50 6a 4c be 98 ce 44 be
       -0.087520845 -0.10021167 -0.1996243 -0.19219434
0002a0 19 2a 03 3d 8f cb 83 bd 3a 6d 96 bd ab 2c 00 3e
       0.03202257 -0.0643531 -0.07345052 0.1251704
0002b0 19 22 60 3e 9b 67 40 bc 20 f8 ef 3d 14 c5 ac 3d
       0.21888007 -0.0117434515 0.11717248 0.08436027
0002c0 79 64 f5 3d a1 da e4 bc 05 72 65 3e 3c f9 02 be
       0.11982054 -0.027936282 0.22406776 -0.12790388
0002d0 41 11 08 3e 20 dc 40 be 63 34 ee 3c 41 a0 c9 bd
       0.13287832 -0.18833971 0.029077714 -0.09845019
0002e0 be c6 8e bd 24 fe 23 3d b6 a0 73 3d fb 1f 93 3e
       -0.06971501 0.04003729 0.059479438 0.28735337
0002f0 97 6b 15 be 05 eb 5b bd da f9 32 bd 90 88 f4 3c
       -0.14591824 -0.05369093 -0.04369531 0.029850274
000300 08 4a 63 bd 01 57 59 3d 9d 10 e7 3d 2d 92 c5 bd
       -0.055490524 0.05306149 0.112824656 -0.096470214
000310 f7 5e 97 3e e9 e5 24 be 9d 6e 9e bb 38 0c fd bd
       0.2956464 -0.16103329 -0.0048349635 -0.12355846
000320 7b bd c1 3b 49 ef e5 bd d2 65 94 bb 7b fb 69 be
       0.0059124804 -0.11227281 -0.0045287395 -0.22849838
000330 07 0f 33 ba 14 db fe 3c 4a 2f 04 3d 05 2a 53 bd
       -0.00068305474 0.031110324 0.03227166 -0.051553745
000340 03 73 04 3d 1f 4e a3 3c 6e a2 69 bc 8e d2 eb 3b
       0.032336246 0.019934712 -0.014259918 0.007196731
000350 e8 56 4a bd 3a 8d 21 3e 45 eb 39 3e 36 8e 95 3d
       -0.049399287 0.1577653 0.18156154 0.07302515
000360 5e b7 11 bd 0c 39 f2 bc 87 8d 8b bd b1 e7 37 3c
       -0.035575263 -0.029568218 -0.068141036 0.011224673
000370 0d 50 a8 bd c9 ed 20 bd 15 db fd 3c ca 8b 1c bb
       -0.082183935 -0.03928927 0.030988256 -0.0023887032
000380 c9 c1 7e bd 79 87 22 3d 83 a6 b2 bc 31 f7 2f 3d
       -0.062196527 0.039679978 -0.021807915 0.04296035
000390 83 1f 6d 3d 9f 89 03 be 57 a0 08 3d a8 5a 33 3d
       0.05789138 -0.12845467 0.033356037 0.04378763
0003a0 22 7e fb 3d 3f d1 47 be 1f 49 7b 3c 03 99 39 3e
       0.12279917 -0.19513415 0.015337258 0.18124776
0003b0 a4 66 17 3d 0d 31 76 3d e8 4d 3d be 6c 41 cd bd
       0.03696312 0.060105372 -0.1848675 -0.10022244
0003c0 a0 62 93 bd 14 c2 89 3d ed 07 62 be f6 34 1e bc
       -0.071965456 0.067264706 -0.22073336 -0.009656182
0003d0 53 00 27 be 7b d5 2f bd 79 9c 73 bd c8 71 24 3e
       -0.16308717 -0.0429282 -0.059475396 0.16059029
0003e0 c9 87 f3 bd 0c 56 d0 3d 50 3a 92 bb c4 88 32 3e
       -0.11891133 0.10172662 -0.004462518 0.17434984
0003f0 2c 59 52 bd c8 25 29 3e 6e 38 a4 bd da 31 e5 bc
       -0.051354572 0.16518319 -0.080185756 -0.027977873

backbone.0.bias f4 [128]
000000 7b 3d 30 3c 91 a3 db bb 4a fa 5a 3c e0 7a aa b9
       0.010756846 -0.0067028482 0.013365338 -0.00032516476
000010 1d dc 4a 3c 3c 18 88 3b 8b 48 ba bc 63 64 d4 bc
       0.012381581 0.0041532796 -0.02273967 -0.025926774
000020 a0 ed e1 bb d2 96 22 bc e5 7a 84 bc 25 3e 06 bc
       -0.006894782 -0.009923654 -0.016171882 -0.008193527
000030 45 27 44 bc 85 62 bc ba c3 04 c6 bb 73 09 a6 3b
       -0.011972253 -0.0014372623 -0.006043048 0.0050670444
000040 d0 55 df bb fb 8d b7 bc e9 75 67 bc 07 99 06 bb
       -0.0068156496 -0.022406569 -0.014127233 -0.0020537989
000050 ef ea 13 bc 02 89 a7 bc 91 ed ea bc fd bd 53 3b
       -0.0090281805 -0.020451073 -0.028677734 0.0032309287
000060 fa 2c bb bc 44 b0 15 bb 2e 9b 5b 3b 91 6b a3 bc
       -0.022848595 -0.0022840658 0.0033509242 -0.019948753
000070 64 66 80 3c 8c 2c 46 bb 82 40 74 b7 21 bb 7a 39
       0.015673824 -0.0030238954 -1.4558553e-05 0.00023911569
000080 45 45 c3 bc ef 1e 49 bc d2 5c 23 3c 41 ad 74 3b
       -0.023836741 -0.012275442 0.009970861 0.0037334713
000090 5b 53 08 bc 9c 33 86 bc c2 fa 86 bb 3a 21 45 3c
       -0.008320655 -0.016382031 -0.004119248 0.012031848
0000a0 e8 89 3d bc 01 33 d9 bb 50 17 1c bd 39 23 80 b9
       -0.011568524 -0.0066283946 -0.03810817 -0.00024440305
0000b0 9f 7b 57 bc 32 3b 85 3c 65 e8 3d bc e0 97 83 3c
       -0.013152032 0.016263578 -0.011591052 0.01606363
0000c0 45 8f 13 3c 5c 3c 0b 3a 18 70 79 3b 82 60 b7 ba
       0.009006326 0.00053114234 0.0038061198 -0.0013990554
0000d0 f8 cd 5d bc 38 4c ab 3c 18 72 44 bc 5e 6e ae bc
       -0.013537876 0.020910367 -0.011990093 -0.021292862
0000e0 6f c2 a2 bc 26 e7 94 bc b3 8a 5d bc 73 31 9f bc
       -0.019868104 -0.018176626 -0.013521838 -0.019432759
0000f0 25 31 64 bb 37 5f c7 bc 43 26 6f 3c 2b 3e 96 3b
       -0.0034819331 -0.024337394 0.014596525 0.0045850477
000100 7f 46 a0 bb db c4 a2 bc 50 26 1b bc e0 7f f3 3c
       -0.0048912163 -0.019869259 -0.009469584 0.029724061
000110 3b 0b 4a bc d6 3f 93 bc 71 53 1d bd b6 f5 a8 bc
       -0.012331779 -0.017974775 -0.038409654 -0.020624977
000120 4c 9e eb bb 1a 35 1f 3b 53 b6 09 3c 0e 8f c5 3b
       -0.0071905013 0.0024293126 0.008405286 0.0060290163
000130 50 b2 15 3c 05 14 02 3b b5 17 72 3b fb 2c 98 bc
       0.009136751 0.0019848358 0.00369404 -0.018576136
000140 87 67 64 bc 80 72 bc bc e1 46 c5 bb 95 ca 57 3c
       -0.0139406985 -0.023003817 -0.0060204123 0.013170858
000150 a1 32 97 bc 3d de 92 b9 79 91 83 bc a0 59 86 3c
       -0.018456759 -0.0002801287 -0.016060578 0.016400158
000160 f0 fb bc bb 5e b4 c0 3a 74 1f f6 bc 90 e0 70 bc
       -0.005767338 0.0014702191 -0.030044295 -0.014701977
000170 73 8b 5e 3a e9 f7 b1 3b 2f 1d ab ba 7f e1 8b 3c
       0.00084894075 0.0054311645 -0.0013054962 0.017075298
000180 ca 39 f6 bb de b7 b6 bb 2d 52 55 bc c2 cd c5 bc
       -0.007514213 -0.005576118 -0.0130200805 -0.024145965
000190 0a 5c 00 3c 8a 60 10 3a 5b 14 19 3c 14 5c cc 3b
       0.007834444 0.00055075495 0.009343232 0.0062365625
0001a0 ca c7 02 3c 64 ea ef 3b 14 12 d6 bc 41 9e 86 3b
       0.007982204 0.0073216427 -0.026131667 0.004108221
0001b0 39 ea cb bb 83 dd bf bc 64 3c 1e bc 08 5b ce bc
       -0.00622299 -0.023421055 -0.009657953 -0.025189891
0001c0 45 09 51 bc fa 1c 3d bc c4 cf b5 3b 14 97 a4 ba
       -0.012758558 -0.011542553 0.0055484492 -0.0012557232
0001d0 b4 2d 60 3c d1 fe c8 bb 6f 75 16 bc 8d 4e 9c bb
       0.0136827715 -0.006133892 -0.009183272 -0.004770106
0001e0 a9 b9 2c bc 08 c2 9a bc 95 1b b4 bc c9 d9 d7 bb
       -0.010542312 -0.01889135 -0.021985808 -0.0065872413
0001f0 fb b0 a1 3a b9 e0 1c bc c5 6c 8d bc 18 de b4 3c
       0.001233607 -0.009575062 -0.01726378 0.022078559

backbone.3.weight f4 [128, 128]
000000 bc 58 bc 3d 2d 53 02 3e 6e 6a 55 3e 70 8a 50 3e
       0.09196612 0.12727042 0.20841381 0.2036531
000010 42 bc 4a be 66 e7 98 3d 25 30 e1 bd 03 43 b9 bd
       -0.19798377 0.07466011 -0.10995511 -0.090459846
000020 4f 11 a2 3d 91 e9 d1 3c 1d bf a2 bc ad 08 22 3d
       0.079134576 0.025624068 -0.01986652 0.039559055
000030 9c e9 01 3c 4e 54 f9 bd 56 56 07 3c 52 56 bf bd
       0.007929232 -0.12174283 0.00826033 -0.09342636
000040 c8 f3 65 3d 28 78 df 3d 83 54 a3 bd bb 4d 79 bd
       0.05614069 0.1091159 -0.07975104 -0.060865145
000050 05 34 6b 3d 86 cb 2b be de f9 8a be b8 f2 57 bd
       0.057422657 -0.16776857 -0.2714376 -0.05272171
000060 a3 12 9d 3d 7e 33 7a 3d 1a 40 04 bd 46 94 49 3e
       0.0766957 0.061084263 -0.032287695 0.19685468
000070 96 de 25 3d 37 26 41 be 60 e3 51 bd 87 1b 06 bd
       0.040495478 -0.18862234 -0.051242232 -0.032741096
000080 b8 ba db 3d dd b6 ba bc b9 eb 4f be 9c f0 d0 bb
       0.10728973 -0.022792274 -0.20304765 -0.006376339
000090 67 7d 4c 3c f0 a7 ee 3d 6e 68 e9 3d 72 bf cd bc
       0.01248107 0.11653125 0.113968715 -0.025115702
0000a0 5d 33 72 3d 30 18 79 be fa 28 3d be 55 8e c6 3c
       0.059131015 -0.24325633 -0.18472663 0.024237791
0000b0 e5 f9 8a bd 56 8c 84 3e c2 31 00 be 4b 0e 1a 3e
       -0.06785945 0.25888318 -0.12518981 0.15044515
0000c0 5c 07 8c bc 46 26 2a 3e 8a 99 19 3e 87 03 82 bb
       -0.017093353 0.16616163 0.14999977 -0.0039677056
0000d0 cd b8 08 3c 27 e0 80 3d 07 7d 8f bd a6 e4 f2 bd
       0.008344841 0.06292754 -0.07006269 -0.118600175
0000e0 aa c3 a8 3d e4 ef 42 3d f4 55 28 be 1a d9 06 be
       0.08240445 0.04759206 -0.16439039 -0.13168755
0000f0 dd ce 7b 3d 08 0f a1 bd ba 48 0c bb a5 4d bf bd
       0.061476577 -0.07864195 -0.0021405653 -0.093409814
000100 24 dd 78 3c 63 16 83 3d e0 42 63 3d fe 4d 4a 3e
       0.015189443 0.06400754 0.0554837 0.19756314
000110 97 12 71 3e 69 e6 da 3d e8 cd c4 bd 71 9d ad bd
       0.23542248 0.106884785 -0.09609586 -0.08477295
000120 a6 0d 1c bd 2f fa 2c 3e b3 90 97 3d fc 0b 33 bb
       -0.038098954 0.16892312 0.07400646 -0.0027320376
000130 e2 e5 35 3e 31 66 f2 bd c6 63 7e 3e a8 48 5e be
       0.17763475 -0.11835898 0.24842748 -0.21707404
000140 b5 d8 8a 3d cd ba 45 3c 56 4c d5 3d d8 c5 5b 3e
       0.06779615 0.012068463 0.104149505 0.2146219
000150 32 2d ed bd 8c 78 8e 3d 24 38 09 be 09 2b 80 be
       -0.11580886 0.06956586 -0.13400322 -0.25032833
000160 0c 8b eb 3d e9 88 0a 3e 80 2e 19 be ac 3c 23 3e
       0.115011305 0.1352879 -0.14959145 0.15941113
000170 7d 64 e9 3d 64 3f 85 bc 59 a4 2c be b0 65 14 be
       0.1139612 -0.016265579 -0.16859569 -0.14491916
000180 1d ae 73 be 99 d1 39 3c 6c 52 c2 3d 61 e8 ee 3d
       -0.23796888 0.011341476 0.09488377 0.116654165
000190 59 b4 d0 3c c5 8a 33 bd dd e6 56 bc c7 93 17 bb
       0.025476621 -0.043833513 -0.0131165655 -0.0023128854
0001a0 c3 98 36 bd fe b9 13 be 94 84 63 be dd c0 fc bd
       -0.04457928 -0.14426419 -0.22218543 -0.12341473
0001b0 53 a3 5f be 41 bd 0f 3e 84 45 3c bd 1d ce fe 3c
       -0.21839647 0.14037038 -0.045964733 0.031104142
0001c0 55 f0 c0 bc 7a 95 c5 bd 42 cb 32 be eb 25 94 3e
       -0.0235521 -0.09647651 -0.17460349 0.2893518
0001d0 66 54 92 bd 57 73 18 be 04 16 1a be 33 73 d1 3c
       -0.07145004 -0.14887749 -0.15047461 0.025567627
0001e0 8b 8a 67 3d 0d e6 04 3e 5c 12 e7 bd 2f fe 03 be
       0.05652861 0.12978382 -0.11282799 -0.12889932
0001f0 b5 50 af 3d 3d 72 ac bd 33 60 64 3d 28 43 15 be
       0.085603155 -0.08420227 0.055755805 -0.145764
000200 92 05 53 be 0d 68 17 3e 09 27 0e 3e e5 b3 f5 3d
       -0.20607594 0.14785786 0.13882078 0.11997203
000210 91 0e 86 be c8 c0 2e bd 6f 28 8c 3e b7 ac b1 3d
       -0.26182988 -0.04266432 0.27374598 0.08675521
000220 ce c0 12 be 19 1d 84 3e 88 8d 84 3c 04 b9 d9 bc
       -0.14331362 0.2580345 0.016180769 -0.02657748
000230 27 39 74 3e 8d 53 5f be 74 db ac 3c a4 a0 83 bd
       0.23849927 -0.21809216 0.021100737 -0.06427124
000240 6a f6 0f 3e ca 9a b6 bc 81 c2 a1 3d 0c fa 36 3d
       0.14058843 -0.022290606 0.07898427 0.044672057
000250 1d f9 b7 bd 7a ef e7 bb 0f c3 d3 3d 35 ca 48 be
       -0.089830615 -0.0070781084 0.10339939 -0.19608386
000260 16 9d c8 bd 0e af a2 be 60 83 0b be 35 fb 16 be
       -0.09795587 -0.3177418 -0.13624334 -0.14744265
000270 40 22 ff 3d 4d f5 e7 3c 9d 24 7f 3c eb 9d 88 3d
       0.124577045 0.02831521 0.015572694 0.066707455
000280 fd 29 40 3e 86 67 3d bd 22 cb 7c be 36 79 82 bd
       0.18766017 -0.046241306 -0.24686864 -0.063707754
000290 65 cd 08 3d aa 2e ac bd b4 90 b4 bc 87 6a 90 3e
       0.033399004 -0.08407338 -0.022041656 0.28206274
0002a0 bb 91 37 3e eb a4 00 3e 1a 24 45 3d a1 e2 08 3d
       0.17926686 0.12562911 0.048130132 0.033419255
0002b0 94 9f 45 3b d1 ce 66 be 11 ab 12 bc 5f a3 14 be
       0.003015493 -0.22539832 -0.008951918 -0.14515446
0002c0 d9 aa 11 3c 3b c2 8d 3d 2e af be 3d 6f f1 47 be
       0.008890831 0.06921812 0.093107566 -0.19525693
0002d0 33 0c ac bd 71 52 5e bd 59 f0 07 3e f7 a8 57 bc
       -0.08400764 -0.05427784 0.13275279 -0.013162843
0002e0 59 71 b8 3d f2 2c 16 bd 26 84 d6 3c bd 9e cc bd
       0.09005994 -0.036663957 0.02618606 -0.099912144
0002f0 f8 a6 7f 3d fe 82 36 3e d7 5b 53 bd a7 86 7a be
       0.062415093 0.17823407 -0.051601257 -0.24465428
000300 78 5e 93 be d6 53 9c 3d 87 2d 56 3d 4f a7 a7 bd
       -0.2878301 0.07633178 0.052289512 -0.081862085
000310 46 d9 a9 3d 16 ce 91 bd 58 19 0b bd e7 90 87 be
       0.08293395 -0.07119386 -0.033959717 -0.2647774
000320 83 42 cf bd f7 5a 3d 3d 20 ed 03 bd 6e 17 64 bb
       -0.10120108 0.04622933 -0.032208562 -0.0034804004
000330 5d e9 22 be 59 39 8a bd 50 cc ac 3d d1 15 2c bc
       -0.15909334 -0.067492194 0.08437407 -0.010503248
000340 7e 10 e4 bc 99 af 9b bc 06 3c a6 3c 2f d7 5a be
       -0.027839895 -0.01900463 0.020292293 -0.21371149
000350 7b c8 d6 bd de bb 15 be 52 01 92 3d de 35 8a be
       -0.10487457 -0.14622447 0.07129158 -0.26994222
000360 3d 5f a5 bd 91 45 88 bd 8d af 3a 3e 18 3f 22 3d
       -0.08074806 -0.06653894 0.1823103 0.039610952
000370 c6 3a 39 bd 3d 85 da bd d1 96 54 3d 98 6f 05 bc
       -0.045222066 -0.106699444 0.051901642 -0.008144282
000380 4d b2 79 bd 10 82 c3 bd 5c e8 d5 bb 61 3f 94 bc
       -0.060961057 -0.09546292 -0.0065279435 -0.018096628
000390 19 f3 a0 be 6b 34 78 3d 2f 86 b6 3d 6d 7a 6c be
       -0.3143547 0.060596865 0.08912312 -0.23093577
0003a0 2c eb 6c bd f7 94 c8 bc 60 7b 42 bd d0 8d 22 3b
       -0.057841465 -0.024485094 -0.04748094 0.0024803765
0003b0 de 6c 66 3d 54 02 fe 3d 31 4b 40 bd 6d 1a 99 bd
       0.056256168 0.12402788 -0.046946708 -0.074757434
0003c0 1b e8 36 ba 12 06 23 bc 7c 73 9e 3d 66 49 dd bd
       -0.00069773354 -0.009950178 0.07736871 -0.10805015
0003d0 ea 7f b3 3c 42 18 51 3e 4f 89 b3 3d a3 8d cd 3d
       0.02191158 0.2041941 0.08766424 0.10036781
0003e0 7f 8b 15 bd 99 a0 d1 3d 21 4a c3 ba 94 94 a4 3c
       -0.036509987 0.1023571 -0.0014899411 0.020090379
0003f0 24 20 21 3e b8 6a 8d 3d a8 6b 51 bd 1c 8a d8 bd
       0.15734917 0.069051206 -0.05112806 -0.10573217

backbone.3.bias f4 [128]
000000 bc d6 0a 3d bb 37 aa bc 2e eb 6b 3b 0f 83 ac 3c
       0.033896193 -0.020778527 0.0035998332 0.021058587
000010 3c 97 1c 3c c9 93 87 3a f4 5b b1 ba 20 68 24 3b
       0.009557541 0.0010343726 -0.0013531432 0.0025086477
000020 b8 f3 62 3c 8a 21 1f 3b 2a 03 f6 bc 5a 09 7e 3c
       0.013852052 0.0024281465 -0.030030806 0.015505159
000030 87 99 99 bb f4 2a 5d bc 86 7d 25 bc e0 31 57 3c
       -0.0046874913 -0.01349901 -0.010100728 0.01313445
000040 ee 2f 70 3b 31 88 42 bc 7b cf a8 3b 77 f6 90 bb
       0.0036649662 -0.011873291 0.0051516867 -0.004423912
000050 d6 f1 65 bc c2 37 f0 bb 3f da 9d bb b4 7f a7 bb
       -0.014034709 -0.0073308656 -0.0048172767 -0.005111659
000060 73 11 db bc 9b 6a 34 bc ca ae a5 3b 09 24 6e 3c
       -0.026741719 -0.011011745 0.005056237 0.014534959
000070 d6 46 22 bb 17 3a 95 bc 1a 2b e6 ba 12 02 86 3c
       -0.002476146 -0.018216176 -0.0017560453 0.01635841
000080 b1 fa 2d bc 5d a6 ec bb 37 12 51 3c 93 8b c3 bc
       -0.0106188515 -0.0072219805 0.01276069 -0.023870265
000090 d7 71 45 bc 8a fa bf b9 50 a7 00 bd b9 8b 9a bc
       -0.012051067 -0.00036617025 -0.03140956 -0.018865453
0000a0 73 55 83 38 86 c8 b5 bb 16 57 76 bc b6 a6 24 bc
       6.262483e-05 -0.005547586 -0.015035411 -0.010049513
0000b0 3f e2 36 bc c0 9b 10 bb 2f 44 9b bc 30 b2 bf 3c
       -0.01116234 -0.002206549 -0.01895341 0.023400396
0000c0 af cd 71 3b e6 a4 a8 bc 1b a2 bb bc 0f fc c8 bb
       0.0036896279 -0.020586442 -0.022904446 -0.0061335634
0000d0 1b 55 d8 bc 30 64 da 3c be 36 0e 3b c9 3a 85 3b
       -0.026407769 0.026659101 0.002170011 0.0040658456
0000e0 a7 41 8a bb b0 d8 a5 3c 62 8f 94 bb 8d 40 a9 3b
       -0.004219252 0.020244926 -0.004533694 0.0051651658
0000f0 d1 c8 6c bc ae 77 7c 3b f6 8e ab bc fd 95 6c bc
       -0.014452175 0.0038523483 -0.020942193 -0.014440057
000100 2b aa 31 bb bb 66 3b bc ad 94 b6 3c 5f bf c0 bb
       -0.0027109485 -0.011438067 0.022287691 -0.005882188
000110 b6 de 03 bc 4f 04 0a bc 69 34 d1 bb d3 6b a3 3b
       -0.008048704 -0.008423879 -0.0063844216 0.004987219
000120 2c cf 0f bc a3 5d 1a 3c 7a 57 ff ba f4 2c 00 bc
       -0.008777421 0.009421739 -0.0019481026 -0.007823218
000130 4c b3 0c 3c 1f 3f 09 3d 4c 52 97 bc f5 0a 6b 3c
       0.00858767 0.033507463 -0.01847186 0.014345874
000140 42 2a 2d bc 05 30 5a bc 94 8c 82 bc 6f d5 39 bc
       -0.010569157 -0.013317113 -0.015936173 -0.01134239
000150 ff 85 b3 bb e1 87 8f bb 34 76 2c bc 34 42 ad bb
       -0.00547862 -0.0043802117 -0.010526229 -0.005287433
000160 d1 32 60 3b 16 12 bc 3b 0d 12 ee 3c 93 75 c4 bc
       0.0034209976 0.0057394607 0.029061342 -0.023981845
000170 00 fe a8 ba c0 6b 5c 3c a3 a0 45 bb 16 3f 00 3d
       -0.0012893081 0.013453424 -0.0030155561 0.031310163
000180 f8 5e 49 ba 93 f0 d0 3b 3f 27 02 bd e9 40 3e bc
       -0.0007681693 0.006376335 -0.03177571 -0.0116121555
000190 6c d1 23 3c 98 30 bd ba 8a 4e 55 ba ba 9c 95 3a
       0.009998661 -0.0014434038 -0.00081370084 0.0011414506
0001a0 cd b0 c0 3c 1e ac 85 3b 01 65 3f bb 4b d9 9d bb
       0.023521805 0.004079356 -0.002920449 -0.004817163
0001b0 d6 a3 6f 3c 00 cd aa bb 43 9b 1b 3d d2 51 39 3c
       0.014626464 -0.005212426 0.037989866 0.011311011
0001c0 0c 59 b6 bb 28 c1 3e bc 27 7e 21 3c d7 eb d7 bc
       -0.0055648144 -0.011642732 0.009856737 -0.026357574
0001d0 50 39 ca b9 b7 e9 58 3c c8 3e 5e bc 65 0e 9c 3c
       -0.00038571144 0.013239316 -0.013564773 0.019049833
0001e0 b5 93 7b bc 02 9f 23 bc 59 8a 05 ba 78 5a 12 bc
       -0.01535504 -0.009986641 -0.0005094163 -0.008932702
0001f0 f4 71 bc bc a8 ff 35 bc bf 70 ac bc fc 2c 56 3b
       -0.023003556 -0.0111083165 -0.021049855 0.0032680621

backbone.6.weight f4 [64, 128]
000000 b2 c8 e3 bd b7 1c 43 3d 14 22 db bd 35 7c c8 3c
       -0.11122264 0.047634806 -0.10699859 0.024473289
000010 b8 8d 0b be 6a b6 18 3d 12 1d c5 3d 98 19 b2 bd
       -0.1362828 0.03728334 0.09624685 -0.08696288
000020 61 42 bc 3d bb ec 74 bd 66 d6 ae 3d 4e 1f 3c be
       0.09192348 -0.059796076 0.08536987 -0.18371317
000030 53 9b 8c 3e 4a 94 1f 3e e2 e8 a6 3c bb 79 55 bb
       0.27462253 0.15583912 0.020374719 -0.0032573778
000040 17 7f a2 3d 5a 24 56 3e 27 ef 2a bc e2 28 59 bd
       0.07934397 0.20912305 -0.010432995 -0.053017505
000050 7a 6b 5b 3d d1 ce 1d 3e 29 be 49 3d d3 ad c4 bc
       0.053569295 0.15410925 0.049253616 -0.024008667
000060 db 1f 4c 3d 97 f7 5d be ed 08 36 be a5 73 f8 3d
       0.049835067 -0.2167648 -0.17776842 0.121314324
000070 1a fd 26 bc 6a 6f b6 3d 7c e0 ca bd 63 17 5f bd
       -0.01019218 0.08907969 -0.09906098 -0.054465663
000080 cf a8 18 bd ff e9 2e be 8d 82 ea bd 65 9e 29 3e
       -0.037270363 -0.1708145 -0.11450682 0.16564329
000090 51 fb 10 be 11 7a d3 3d 26 22 fd bc d8 54 09 be
       -0.1415837 0.10326017 -0.030900072 -0.13411272
0000a0 60 7e 81 3d 11 a9 83 3e b9 68 25 be c6 db 92 3d
       0.06322932 0.25714925 -0.1615323 0.07170825
0000b0 3c 24 4f bc 13 c4 2d be c9 be 05 be 50 4e be bd
       -0.012642916 -0.16969328 -0.1306106 -0.09292281
0000c0 d5 70 a6 3e 6d fe 3f 3d 77 45 89 3d 00 8a d6 3d
       0.3250796 0.0468735 0.067027025 0.1047554
0000d0 2c 90 b4 3d 15 df 95 3d 94 17 23 3d 70 11 05 be
       0.08816561 0.0731794 0.039817408 -0.12994933
0000e0 9d fe ed 3d e2 1c df 3c 41 c3 73 3e c8 48 f1 bc
       0.11620829 0.027235452 0.23804952 -0.02945365
0000f0 a5 99 11 be 06 a3 7a 3e 47 b8 a4 3d c3 d3 77 3d
       -0.14218767 0.24476251 0.080429606 0.060504686
000100 b2 8d 94 bd 7c 29 d5 3c a6 52 b0 3e 8b 8a 6b bc
       -0.07253589 0.026020758 0.34438056 -0.014376293
000110 64 de 69 be 79 19 5f bd 74 f9 54 be c2 cd 55 3e
       -0.22838742 -0.054467652 -0.20798284 0.20879272
000120 a4 27 7f 3d 4f 80 8b 3d 97 c5 03 be 2c f6 67 be
       0.062293664 0.06811582 -0.12868343 -0.22652501
000130 f2 de 36 3b d8 af 14 3e 6a e5 3a 3d 6b bb 24 3e
       0.0027903882 0.14520204 0.045628943 0.1608712
000140 50 a7 5e be 8c 53 e5 bc d5 bf 62 3d 5b 53 bd bb
       -0.21743512 -0.02799394 0.055358727 -0.005777759
000150 d4 01 10 bd 4e e0 cc 3c 6b f7 c8 3c a9 76 14 be
       -0.035157993 0.0250093 0.02453204 -0.1449839
000160 05 56 86 bc 3a f1 c2 bd 41 11 2e bc 28 91 49 3d
       -0.01639844 -0.095186666 -0.010624231 0.049210697
000170 4b 7c 91 bd ec af 46 bd 18 ab 09 3c de 33 82 3b
       -0.07103785 -0.048507616 0.008402608 0.003973468
000180 fa 54 dd bd 81 08 99 bd b5 2b b2 3c 9f 30 57 be
       -0.108072236 -0.07472325 0.021749357 -0.21014641
000190 1d d1 e1 3d 02 a3 67 3e 9b 1f 0a be 71 26 47 3e
       0.11026213 0.22620776 -0.13488619 0.19448258
0001a0 09 82 1e 3d b9 49 d2 3d 56 82 07 bd 14 65 c5 bd
       0.03869823 0.10267968 -0.033083282 -0.0963842
0001b0 9b a3 1b be 02 f3 10 3d 3b b0 86 3e 97 68 1e be
       -0.1519913 0.035388 0.26306328 -0.15469585
0001c0 e7 56 a7 3c e6 e2 dd bd f9 30 be 3b be 8a fa 3c
       0.02042718 -0.10834293 0.005804178 0.030583736
0001d0 de 6b 72 3d 79 d5 4e 3d bb 94 45 bd 5e 91 27 3e
       0.0591849 0.050496552 -0.048237544 0.16364047
0001e0 ed 6d ae 3e e3 c6 61 bd 71 88 07 3e 0a c2 b0 3d
       0.34068242 -0.055121314 0.13235642 0.0863076
0001f0 59 5a 47 3d 7b 39 bf 3b 90 c1 ba bb 60 b5 1c 3d
       0.048670147 0.0058357096 -0.005699344 0.03825891
000200 82 eb 9e be ee 89 65 bd ae 0c c3 bd cc 5b 28 bd
       -0.31039053 -0.056039743 -0.09523903 -0.04110317
000210 50 9d 03 3d 07 3f 98 3d 75 24 eb 3c 54 bd 57 bd
       0.032132447 0.074338965 0.028703908 -0.05267079
000220 70 32 19 bd ca 39 95 be 06 68 e7 3d 0a 46 09 3c
       -0.037401617 -0.29145652 0.11299138 0.008378515
000230 73 d4 f5 3d 4d f8 e8 3d 1a 7a b0 3d bd 70 e4 3d
       0.12003412 0.113754846 0.08617039 0.111543156
000240 e3 88 dd bd 2d dc bd 3d d3 11 eb bd 47 55 80 3c
       -0.10817125 0.09270511 -0.11478009 0.015665663
000250 96 ad 33 bd c5 dd 42 3d c7 7c dc 3d 2d 5d b8 3d
       -0.043866716 0.047574777 0.10765987 0.09002147
000260 34 df 41 be 8f 25 70 bd e6 29 1b be ef 78 5f 3d
       -0.18932801 -0.05862957 -0.15152702 0.05455869
000270 92 d4 53 3e 3c b8 00 bd 7a 62 f3 3d 8b 7f 85 3e
       0.20686558 -0.0314257 0.11884017 0.2607387
000280 d5 02 1e bd 95 5d 0f be f7 11 4a be a6 ea a4 bd
       -0.03857692 -0.14000542 -0.19733416 -0.08052568
000290 40 70 80 3d d9 22 f2 bc 6e a6 1e 3e 20 9a 56 3d
       0.0627141 -0.029557632 0.15493175 0.05239308
0002a0 b1 0b b5 bd 53 5d 0a be ec b8 2a 3b 9c ca 93 3d
       -0.088401206 -0.13512163 0.0026050163 0.07216379
0002b0 c9 8f 53 3d 07 1c c3 3c 8d 72 f8 3d 2e 16 53 3e
       0.051650796 0.023817075 0.12131224 0.2061393
0002c0 01 db 8f bc c2 1b 3b 3d e6 bb 2a be 71 f5 ef 3b
       -0.017560484 0.04568077 -0.1667324 0.00732296
0002d0 04 b6 e3 3d 91 fe 84 3d 9c 95 3a be a5 e5 14 be
       0.11118701 0.06493867 -0.18221134 -0.14540727
0002e0 53 95 95 bd 11 6e 8d 3d de d5 99 bc d7 6b 34 be
       -0.07303872 0.06905759 -0.018778738 -0.17619263
0002f0 94 74 8e bd 68 a5 90 3c e3 8c 07 3e a8 4b 24 3e
       -0.06955829 0.017656997 0.13237338 0.16044486
000300 bb b2 dd 3d 6b e2 02 be 0b 85 11 be da 50 21 3e
       0.10825106 -0.12781684 -0.14210908 0.15753499
000310 3f 73 ca 3d 83 0f d1 bd 08 7d 89 be 99 7f 97 bd
       0.09885263 -0.10208037 -0.26853204 -0.07397384
000320 a2 b9 f1 3d b5 eb d7 bd f3 26 d8 3d 22 ff 46 3c
       0.11802985 -0.105430044 0.10554304 0.012145789
000330 8d 1e af bd c3 17 89 3d 17 6c 0d bd 55 62 1a be
       -0.08550749 0.06693985 -0.03452691 -0.15076573
000340 f7 16 1c be 81 c7 65 3d 64 a0 9e bc b5 fb 5a 3d
       -0.15243135 0.056098465 -0.01936359 0.053462703
000350 64 7e 5b bd c0 09 64 bd 73 ee e6 bd 47 d9 97 bd
       -0.053587332 -0.05567336 -0.11275949 -0.07414489
000360 bb 15 52 bc 21 e0 b7 bd a8 66 92 bc ba 02 b4 3a
       -0.012822564 -0.08978296 -0.017871216 0.0013733723
000370 71 3c 5c 3e ef be 8a 3e 9d 21 a4 bd dd 7c 12 be
       0.21507432 0.27098796 -0.08014224 -0.14305444
000380 f0 cb 37 be 46 b5 ca 3d 0b 19 e6 bd a7 3f 39 3c
       -0.1794889 0.098978564 -0.11235245 0.01130668
000390 2e 62 cf bb 2c da 2b 3e b9 18 96 3d a0 45 ec bd
       -0.0063288426 0.16782445 0.07328934 -0.115367174
0003a0 34 f5 65 be 56 21 df 3d 65 3c 18 3e ac 27 19 be
       -0.22456819 0.1089503 0.14866789 -0.1495654
0003b0 04 5a 95 bd 96 96 89 3e 0f 9d 0f be 0b ea 61 bd
       -0.0729256 0.268727 -0.14024757 -0.05515484
0003c0 c6 0d fa 3d 85 96 47 3d 0b a3 e8 bc cd 76 19 3c
       0.12209658 0.04872753 -0.028398057 0.009366703
0003d0 c4 12 14 3e 79 4a 0a be 19 69 6f bb d5 5c 01 3b
       0.14460284 -0.13504972 -0.003653115 0.001973917
0003e0 8d 74 55 be 9a e9 57 3e 4a 13 d1 bd 97 87 2d bd
       -0.20845242 0.21085206 -0.10208757 -0.042365637
0003f0 9a cc b1 3e 0d 76 3e 3e 6c 55 4a bd ed 90 d5 3d
       0.3472641 0.1859972 -0.04939787 0.10428033

backbone.6.bias f4 [64]
000000 1b cc 93 3c c5 06 f3 bc 55 43 02 3c 4c 24 a0 3c
       0.018041661 -0.029666314 0.0079506235 0.019548558
000010 4d ab 45 bb 5b 14 79 3b 9a d4 68 bb 73 63 b5 bc
       -0.0030161918 0.0038006518 -0.003552711 -0.022142148
000020 7b 92 1b 3b 0e aa 3f 3c eb 16 6c bc 98 ec f0 3b
       0.0023738432 0.011698259 -0.014409761 0.007352423
000030 85 84 9c bb 3e b8 fb bb c1 0d 77 bc e3 1f be bc
       -0.0047765397 -0.0076818755 -0.015078963 -0.023208564
000040 d3 21 18 bc 8e a0 23 bc 3b bf ff 3c 43 c5 44 bb
       -0.009285408 -0.00998701 0.031219115 -0.0030024804
000050 66 6b 91 3c 80 1e a1 3c a3 fd ed bc cd ee 0e bd
       0.017751407 0.019667864 -0.029051607 -0.034895707
000060 18 14 b0 bc 64 1d 71 3c 0b f0 bb bb 73 54 e2 3c
       -0.021493956 0.01471648 -0.0057354025 0.02762816
000070 96 e1 39 3c da 7d 62 bc 42 94 51 bc 5b 05 e8 bb
       0.011345288 -0.013823951 -0.012791695 -0.0070807165
000080 06 12 82 bb 52 78 be 3a 43 14 58 bc ce b5 5d bc
       -0.0039694337 0.0014531708 -0.0131884245 -0.013532115
000090 1c 61 7b bc 19 c8 54 bb 93 ea a6 bc c6 0d 8e bc
       -0.015342977 -0.00324679 -0.020375526 -0.017340552
0000a0 f0 6e c4 3c b1 3a 0c bc be 07 98 3c 52 20 f0 3c
       0.02397868 -0.008558915 0.01855838 0.029312287
0000b0 e1 d6 cc bc 89 e8 94 3c 74 96 03 bc f2 4c cb bb
       -0.025004806 0.018177288 -0.008031476 -0.006204241
0000c0 92 e9 20 bc b8 46 78 bc 16 b4 66 bc 33 5e 51 bb
       -0.0098213125 -0.015153579 -0.014081022 -0.0031947016
0000d0 b1 de 50 3d 17 e6 43 bb 4e 35 b1 3c 23 70 fe 3a
       0.050993625 -0.0029891783 0.021631863 0.0019412081
0000e0 30 f5 87 bc 6b c6 8c 3c 29 79 d9 bb 32 13 89 3b
       -0.016596407 0.017184457 -0.006636758 0.0041831965
0000f0 64 5d 73 3c 8e 51 00 bc d3 9d fc ba 8e f2 67 3d
       0.014853809 -0.007831944 -0.001927311 0.056627803

actor.weight f4 [20, 64]
000000 e2 46 e6 bd 90 80 05 3f 5d 29 47 3e a6 0d 2b be
       -0.112439886 0.52149296 0.19449373 -0.16704425
000010 75 85 20 bd 77 9e 0a 3e 96 f2 75 3e 55 fe ac 3d
       -0.039189775 0.13537012 0.2401832 0.084469475
000020 50 8a 23 3c 8c ca 97 bc e3 e5 ad be ac 05 99 3e
       0.009981707 -0.018529199 -0.33964452 0.2988714
000030 35 89 88 bc 51 d0 7f 3e 02 ec 26 3e e9 0d 00 be
       -0.016666988 0.2498181 0.16300967 -0.12505306
000040 d6 cc 9d 3e de d1 a3 3d d5 c2 c4 3c 07 2e de 3c
       0.3082034 0.07999013 0.024018684 0.027121557
000050 8b 26 9c be 75 35 8d be 3a 3f d0 3d 50 3b 2f 3e
       -0.30498156 -0.27579847 0.101683095 0.1711247
000060 54 a8 ab 3d 85 35 29 be 08 44 5e be f5 ce 05 bd
       0.083817154 -0.16524322 -0.2170564 -0.032668073
000070 89 d0 50 bd df af 0c be 10 ac a2 bd 06 ff 2e be
       -0.050980125 -0.13738964 -0.079429746 -0.17089471
000080 1d 14 7b 3c a1 d9 31 3e e2 45 cc bc 8b d0 2b 3e
       0.01532462 0.17368175 -0.024935666 0.16778772
000090 21 bd 8e 3d 0c e9 a7 bd a4 71 a8 3d 85 7c 97 be
       0.06969667 -0.08198747 0.082248 -0.29587188
0000a0 3f 5d 5d 3e 31 a0 7d bd 08 1a 00 be fc 03 2c 3e
       0.21617602 -0.06192035 -0.1250993 0.16798395
0000b0 e1 6d 06 be ba 64 91 be a8 25 3b be 01 f5 55 bd
       -0.13127853 -0.2839716 -0.18276083 -0.052235607
0000c0 6b 03 59 be b6 c0 ea bb 32 e9 d3 bd 8c 84 95 3c
       -0.2119271 -0.007164086 -0.10347213 0.01825168
0000d0 a8 98 12 be e1 ad 55 3c 74 09 6f be cc fd b9 3a
       -0.14316046 0.013041944 -0.2334345 0.0014190017
0000e0 fc d8 e6 bd fc 8e 59 3a 0a 47 6d bd 6a 74 f5 bc
       -0.11271855 0.00082991994 -0.057929076 -0.029962737
0000f0 b6 5b 79 be 20 db 30 3d bb 52 c9 be fb f3 6e 3d
       -0.24351391 0.043177724 -0.3932093 0.058338147
000100 e7 7b e9 bc ff 24 59 bd b1 93 83 bd 1b e4 51 bd
       -0.028501464 -0.053013798 -0.06424654 -0.05124293
000110 d2 a4 26 3e e3 90 76 be b8 d4 12 bd 25 45 3d 3e
       0.16273811 -0.24078707 -0.035847396 0.18483408
000120 24 fb 1b be 81 22 a8 bd 5f 33 ca bd f9 7c 2b 3e
       -0.15232521 -0.08209706 -0.098730795 0.16746892
000130 4f 0a cc 3b 54 b9 45 3e 14 c8 30 bd 5a 09 39 3d
       0.006226815 0.19308978 -0.04315956 0.045174934
000140 72 7e 88 3d d7 60 08 bd c9 7f b2 3e 75 9f b1 be
       0.066647425 -0.03329548 0.34863117 -0.3469197
000150 6e ad 8a bc d6 1b 95 be 86 82 02 3e 51 11 49 be
       -0.0169284 -0.291228 0.12745103 -0.19635512
000160 5b 15 84 3e 2d 47 2d bc 5a 29 df bd 19 14 9d be
       0.25797543 -0.010576052 -0.10896559 -0.30679396
000170 3c c7 59 3d 3a 75 4b 3e 80 28 47 3d 30 23 58 3e
       0.05316852 0.19868937 0.04862261 0.21107173
000180 0a 03 83 3d 89 a6 f1 3d b8 a3 bf 3d bc ef 37 be
       0.06397064 0.11799342 0.09357399 -0.17962545
000190 8e 0d 31 3e 59 ff bb 3d cb ce 13 3d d0 85 8f 3d
       0.17290327 0.09179563 0.036085885 0.070079446
0001a0 d3 5f 7a 3d eb b6 bb 3d ca d9 f0 3b a2 62 d7 3d
       0.06112654 0.09165748 0.007350181 0.105168596
0001b0 d8 cf 13 be 5a b6 a1 3e 05 49 1b 3e 6a 9e 3b 3e
       -0.14434755 0.31584436 0.15164573 0.18322149
0001c0 37 c3 97 3e c0 59 58 bb 33 97 1b bc c2 66 8d be
       0.29641125 -0.003301248 -0.009496498 -0.2761746
0001d0 23 31 e9 3e 4c 7f 95 3e 58 2d c1 bd 41 25 91 3e
       0.455453 0.29198682 -0.09432477 0.28348735
0001e0 52 79 a9 3d 8e 3e 4f 3d 2a fe 14 3e 63 44 10 bd
       0.08275093 0.050596766 0.14550081 -0.03522147
0001f0 22 ee f8 bd 16 a0 8d 3e 18 57 40 be 7f 4a de bd
       -0.12154795 0.27661198 -0.18783224 -0.10854053
000200 88 fc 81 3d 96 ee 22 3d ae 79 5c 3e 1e d5 78 bd
       0.06346995 0.039778315 0.21530792 -0.06075012
000210 a2 0a 08 be f2 78 78 3d e2 ba db bd 5b ba a8 bc
       -0.13285306 0.060662217 -0.107290044 -0.020596674
000220 8c 7e ec bd 86 06 c3 3e 63 10 67 3d be a9 73 bd
       -0.115475744 0.38090914 0.056412112 -0.05948805
000230 8a ed 6b 3d a8 8a 3c 3d 4c 1a be 3d ad ae 62 be
       0.05759958 0.04603067 0.092823595 -0.22136946
000240 10 4a f3 bd 4e e2 10 3c b3 b2 0b 3e e4 3e 22 3e
       -0.11879361 0.008843018 0.13642387 0.15844303
000250 40 37 04 bc 05 70 96 3e 18 8f 92 3e a1 05 4d 3e
       -0.008069813 0.2938234 0.28624797 0.20021679
000260 e3 e9 b8 be 98 c2 88 ba e1 99 32 3d 9b 61 67 be
       -0.3611594 -0.001043397 0.04360378 -0.22595827
000270 2c 45 63 bb bf bb a1 3c ab f1 0b be 0a a4 c4 3c
       -0.003467868 0.019742845 -0.13666408 0.024004001
000280 7c 12 ea bd 28 bd 21 3e 98 f7 11 3e 34 bc bd 3d
       -0.11429307 0.15794814 0.14254606 0.092644125
000290 2a b0 a6 3e f3 4f b2 3e 72 53 99 3d e3 7b 2e 3d
       0.32556278 0.3482662 0.07486619 0.042598616
0002a0 dc 6e 1e 3e 7e cb f4 3c b9 60 1b 3e fe 8f 83 3e
       0.15471977 0.029882189 0.15173616 0.25695795
0002b0 ad c6 15 3e e5 d4 11 be 9d 83 64 be 8c dc d6 3a
       0.1462657 -0.14241369 -0.22315831 0.0016392632
0002c0 d9 0b ac bd 90 b4 4c be d9 20 92 3d 7a 10 76 be
       -0.08400697 -0.19990754 0.071351714 -0.24029723
0002d0 fe ea 71 3e 07 4f f7 3e 97 25 2f 3d ae a0 5f be
       0.23624799 0.4830248 0.042760458 -0.21838638
0002e0 a6 0b d3 3e 2c 24 8e bd 24 f8 d2 3c 27 9c b5 bd
       0.41219825 -0.06940493 0.025753088 -0.08867674
0002f0 8e a2 90 3e d1 79 08 be f6 45 26 3e f0 b6 ee bd
       0.2824902 -0.1332772 0.16237625 -0.11655986
000300 ad 5f fe 3c 2a 29 f6 bd 21 57 6a bc e6 50 6c bd
       0.031051481 -0.1201957 -0.014303 -0.05769434
000310 0c f5 1b 3e 42 a8 ab bd 84 1f 1d 3e f8 86 11 3e
       0.15230197 -0.08381702 0.15344054 0.14211643
000320 fb 88 ac 3e be 78 91 bd c4 93 c2 3c 8c 35 63 be
       0.33698258 -0.07103108 0.0237521 -0.22188395
000330 52 a3 06 3e c6 98 ae 3d 53 ca 94 be 65 9e ef bc
       0.1314824 0.08525233 -0.2906061 -0.029250333
000340 af b5 d8 3d 38 8a 4b 3c d3 a2 2d be 6c 2e 0c 3e
       0.105815284 0.012423091 -0.16956644 0.13689584
000350 fb 46 92 3e 46 9a 90 be ca c2 ad 3c 42 7f ae 3c
       0.2856978 -0.282427 0.021211047 0.021300916
000360 e3 68 32 be 55 96 3a 3d 0b 4e a9 bd 62 2e 36 be
       -0.17422824 0.045553524 -0.08266839 -0.17791131
000370 97 13 96 be c8 22 b8 bd cd eb 7a be d2 f6 ba bd
       -0.2931182 -0.08991009 -0.24504013 -0.091291085
000380 fe 0f 85 bc c8 dc d4 bd 97 1c a5 3d 38 50 59 3e
       -0.016242977 -0.10393673 0.08062094 0.21222007
000390 00 02 7e 3b fc a5 70 3e 09 e2 3b be 45 9e 25 bd
       0.0038758516 0.23500818 -0.18347944 -0.04043414
0003a0 00 93 0a bd ce cc 47 be e6 e3 18 be d6 ae 36 3d
       -0.033831596 -0.1951172 -0.14930686 0.04460033
0003b0 1a cd 9b bd 38 9b 1d 3e b0 08 56 3e 2a dc 3c 3e
       -0.076074794 0.15391243 0.20901752 0.18443361
0003c0 c0 07 62 be b6 55 50 3e b7 3c 57 be 5f fb 79 3e
       -0.22073269 0.20345196 -0.21019255 0.24412297
0003d0 b4 58 a9 bd 89 5f 93 3e 8b 29 f3 3e 98 82 a1 bd
       -0.08268872 0.28783825 0.47492632 -0.07886237
0003e0 c7 9d 31 3e ee 45 12 be c6 44 91 3d 83 31 9c 3d
       0.17345344 -0.14284489 0.070931956 0.07626631
0003f0 07 1b 74 be 7a 0f 90 bc d1 c7 92 be b9 8a 16 be
       -0.23838435 -0.017585505 -0.28668073 -0.14701356

actor.bias f4 [20]
000000 6b 61 b6 bc 1c 22 87 bb 29 31 d6 3c bd 42 72 bc
       -0.02226325 -0.004123939 0.026146488 -0.014786419
000010 47 75 70 bc 11 86 c9 3c 3f fc 8a bc 88 15 c6 ba
       -0.014676399 0.02460006 -0.016965983 -0.0015112618
000020 3a 7d 46 3d b5 0e 54 bc ed 3a 07 bc 8b cf 85 bb
       0.04845927 -0.01294296 -0.008253795 -0.004083579
000030 b0 65 47 bb 05 95 48 3c b7 74 13 bc d8 32 a5 bc
       -0.00304256 0.01224256 -0.008999995 -0.020165846
000040 d7 91 1c bc 2d b0 9a 3b 17 ba 0a 3d 5b 81 07 3b
       -0.009556255 0.004720709 0.033868875 0.0020676467

backbone.0.weight f4 [128, 55]
000000 8f 4e 30 bb 78 20 2d 3d 1c 77 4b be 42 78 cc 3d
       -0.0026902293 0.042267293 -0.19869655 0.09983875
000010 7b a7 3a 3e 78 60 52 bc 40 2e 9a 3d ef 14 1c 3e
       0.18227951 -0.012840383 0.07528353 0.1524236
000020 45 42 59 3d a7 ed b2 3d 3c 3f 31 be dc cf 53 bd
       0.053041715 0.08736735 -0.17309278 -0.051711902
000030 54 8e 48 3c 8b 2d 84 3d 43 8e cd bd 48 d8 6e bd
       0.012240965 0.06453999 -0.100369 -0.05831173
000040 a2 8a 6d bb a3 6a 02 be a2 46 36 3d 86 fe 94 3e
       -0.0036245962 -0.12735991 0.044500954 0.29100436
000050 7b 04 f4 bc ca ca b5 3c 6e ff ef bb 84 1c 19 bd
       -0.029787293 0.022191424 -0.0073241508 -0.03738071
000060 90 a9 83 be 4c 16 6c bd d8 c7 b7 3d 9d 57 4e 3e
       -0.25715303 -0.05763845 0.08973664 0.2015061
000070 89 d8 a8 bc 3a 2e c3 3c 53 74 d2 bd 1d ab 66 3c
       -0.020611065 0.023825753 -0.10276093 0.0140788825
000080 e1 96 e6 bd 6c ad 50 3c 0c 70 33 bd a5 86 61 bd
       -0.112592466 0.0127366595 -0.043808028 -0.055060048
000090 c0 5a 89 bd d5 a1 69 3c 81 53 f2 3d 48 12 a6 3d
       -0.06706762 0.014259775 0.11832333 0.081089556
0000a0 26 c9 24 bd 83 b9 7a be 7d a9 60 bd 6f e4 aa bc
       -0.040230893 -0.2448483 -0.054849137 -0.020860879
0000b0 78 3e a4 3c 9e f5 b0 3b 20 01 90 be 52 2e ee bd
       0.020049319 0.0054003736 -0.28125858 -0.11629929
0000c0 5f cd fe bd 0d 7c 08 3e c3 01 d4 3d 48 f7 93 3e
       -0.12441515 0.13328572 0.103518985 0.28899598
0000d0 18 5a 02 3e 7a e9 40 3e 09 74 8d bd a2 a5 9e 3d
       0.1272968 0.18839064 -0.069068976 0.07746436
0000e0 ff 02 be 3a df 6f 87 bd a3 e7 3c 3e 5a a2 14 be
       0.0014496743 -0.066131346 0.18447737 -0.14515057
0000f0 6a 55 9b bd ab 2f 8e 3d c3 fc 27 3e fb e2 ed 3c
       -0.07584651 0.06942686 0.16405015 0.029038897
000100 9b 52 98 bd de 23 82 3d 6b 7c ac bc c0 8a 68 be
       -0.07437631 0.063544974 -0.02105542 -0.22709179
000110 50 59 fa bd 22 d5 48 3d 5d 08 75 be ec b0 3a 3e
       -0.12224066 0.049031384 -0.23928972 0.18231553
000120 78 bc 0c 3e f9 52 c0 3d 05 01 d8 bd 2b 49 aa 3b
       0.1374377 0.09390826 -0.105470695 0.0051967106
000130 2f 40 f0 3c 59 d6 af 3c 86 0b 00 3e 7f c0 3c 3d
       0.02932748 0.021464514 0.12504396 0.046082016
000140 eb 87 b5 bd be 90 d2 3d 15 e5 43 be 6f b2 66 bb
       -0.08863815 0.10281514 -0.19130357 -0.003520157
000150 92 4f 80 3d e0 62 3d be 33 5a 89 be fa a2 5a 3d
       0.06265177 -0.18494749 -0.2682663 0.053378083
000160 90 d7 40 be 60 c5 e9 3d ef 57 e1 bc af f6 1b 3e
       -0.1883223 0.114145994 -0.02750775 0.15230821
000170 61 f9 c4 b9 94 a3 c8 3d 60 b2 6c bd 42 2d 38 3e
       -0.00037569835 0.09796825 -0.0577873 0.17986014
000180 01 5a e0 bc 11 04 d2 3d cf 5c b3 bd e4 a8 84 bc
       -0.027386667 0.10254682 -0.08757936 -0.016193815
000190 02 3a f3 3d 52 e7 5b bd b1 bf 9c 3d 43 80 44 3d
       0.118762985 -0.0536874 0.0765375 0.047973882
0001a0 ee af d6 3d 9d bd f1 bd 08 de 61 3d 32 00 c3 bd
       0.10482775 -0.11803744 0.055143386 -0.09521522
0001b0 b9 ef 98 bd 43 26 3b be ad 56 4b 3c 34 d4 3d 3d
       -0.074675985 -0.18276314 0.012410802 0.04634495
0001c0 4f c9 31 be 6a 35 04 bb 7e 0a 25 be 54 e6 96 bd
       -0.1736195 -0.0020173439 -0.16117284 -0.0736815
0001d0 7a 79 20 be 77 b8 33 3e a3 28 cc bd 5f b1 fb 3d
       -0.1567134 0.17550837 -0.09968688 0.1228969
0001e0 4f f9 c6 bd 48 82 7a 3d b0 1e 3a 3e f0 57 e8 bd
       -0.097155206 0.061159402 0.18175769 -0.11344898
0001f0 27 40 b4 be cc 10 4a be 5c 12 f4 3d fe 5a 0f 3c
       -0.35205194 -0.1973297 0.11917564 0.008749722
000200 8b 56 0c 3e d2 3c 85 bd 5c a1 86 3d 80 a5 cb bc
       0.13704889 -0.06505741 0.065737456 -0.02485919
000210 34 c1 18 bd c5 5c 54 be 7b 48 01 bd 29 c9 57 bd
       -0.037293628 -0.20738514 -0.031563263 -0.052682076
000220 47 01 1d 3d 95 df 8b 3c 5c fb 87 3e 47 a8 a1 bd
       0.038331296 0.017074386 0.2655896 -0.078934245
000230 20 e9 b9 3b 89 f6 9b 3d c9 e6 a9 bd e0 f0 34 3e
       0.0056735426 0.07615382 -0.08295972 0.17670012
000240 f0 8b cc 3d 85 4d 4e bd 63 05 e7 bc 15 ab c5 bd
       0.099876285 -0.050366897 -0.02820081 -0.09651772
000250 ef 66 3a be 2d ce d5 bc de 60 f9 bd 6a fe c7 bc
       -0.18203329 -0.026099289 -0.12176679 -0.024413306
000260 41 fc 1c 3e d2 dc 63 bd 1c 23 e2 3c 8e b4 de bd
       0.15330602 -0.055630513 0.027604632 -0.10874282
000270 13 11 88 3d 66 27 5b 3e cd 8f ca 3d a7 66 93 bc
       0.06643882 0.21401748 0.09890709 -0.017993284
000280 3a dd 2f bd 9a fd ce 3c 54 d5 87 3d 5a f4 a5 bd
       -0.042935587 0.025267411 0.06632486 -0.08103247
000290 ec 40 05 3e 5d 22 13 3d 2d fa d1 3d 75 e6 20 be
       0.13013047 0.035921443 0.10252795 -0.15712912
0002a0 a8 8f 3a 3e 89 de 8f bd 39 11 0a bd e4 90 57 3e
       0.18218863 -0.07024867 -0.03370783 0.21051365
0002b0 98 d3 2a be 73 37 db bd 84 8f 0a 3d a1 66 f9 3d
       -0.16682279 -0.107039355 0.033828273 0.12177778
0002c0 71 d0 aa 3c d3 aa bc 3d a7 8b 4f be fa 25 b9 3d
       0.020851346 0.0921227 -0.20268117 0.090404466
0002d0 f1 8d 43 3e 03 ad 44 3e 48 86 25 3e 19 cf 09 be
       0.19097115 0.19206624 0.16164505 -0.13457908
0002e0 9b d3 53 be bf 18 06 3c 4f 30 2c 3e 3d c6 f3 3d
       -0.2068619 0.008184611 0.16815303 0.11903045
0002f0 90 fd a1 bc 80 c3 8d bd 42 fe 92 bd 75 6d 32 3c
       -0.019774228 -0.06922054 -0.07177402 0.010890354
000300 df 1c 8d 3d 25 eb eb bc 26 e1 e7 bd 58 1a 82 3c
       0.06890272 -0.02879865 -0.113222405 0.015881702
000310 c0 81 fb 3d 6b a9 aa bd bf 6e 7f 3d 56 08 b0 bd
       0.12280607 -0.08333095 0.062361475 -0.0859534
000320 b1 07 eb 3c 73 51 1b bc e1 1c a1 bd bf 4c 39 3e
       0.028690191 -0.009479868 -0.07866836 0.18095683
000330 f9 7b d2 bc 9e 05 8a 3d d9 30 02 3e 53 a2 d6 bc
       -0.02569388 0.06739353 0.12713946 -0.02620045
000340 d1 30 48 3e cd 70 6f bd 8e 24 9c bd f3 99 62 bd
       0.19549872 -0.058457185 -0.0762416 -0.0553226
000350 e2 20 3f 3d 08 44 ab be 92 7d f3 3c 1a bd 8b 3c
       0.04666222 -0.3345034 0.029722963 0.017057944
000360 5e f8 3a be d8 e0 48 3d d2 15 e5 bd 2f 97 d9 bd
       -0.18258807 0.049042553 -0.111858025 -0.10624539
000370 5b 83 53 bb 6d 6f 63 be cc bf ff bc f1 f1 08 be
       -0.003227434 -0.22210474 -0.031219386 -0.13373543
000380 f2 46 ed bd c2 63 d0 3c 71 8c 89 3e 20 01 8a 3e
       -0.11585797 0.025438193 0.2686496 0.26953983
000390 b7 ac 22 3e cf d0 eb bc 85 9f 51 3e 31 34 33 be
       0.15886198 -0.028786091 0.20471008 -0.17500378
0003a0 b4 d9 86 3e 78 01 03 3e 8d 98 85 3d df da ec 3d
       0.2633797 0.12793529 0.065232374 0.11565184
0003b0 af b1 60 bd 0f 04 71 3d 00 9a af 3d b3 a5 3f be
       -0.054856952 0.05884176 0.08574295 -0.18715553
0003c0 42 e6 f0 3d 56 0b 38 3d 2b db 40 bd db 32 81 3d
       0.11762668 0.044932686 -0.047084015 0.06308528
0003d0 c8 e7 5c bc e3 cf 68 3e c3 ca af bd b1 8d 3d 3e
       -0.013482995 0.22735552 -0.085835956 0.18511082
0003e0 28 92 d5 bd ff 7c c9 bd 2e b7 30 3c 4a 7c 8c bc
       -0.10428268 -0.09838294 0.010785861 -0.01714911
0003f0 63 ee 7f bd e7 dd b7 3e ea e6 3f 3e 8c f7 2b 3d
       -0.062483203 0.35911486 0.1874043 0.041984126

backbone.0.bias f4 [128]
000000 3b 0b d3 3a 80 a7 ed bc 38 44 ba bb b8 8b ae bc
       0.0016101369 -0.029010534 -0.005684402 -0.021306857
000010 e6 92 4f 3b 28 03 cf bc d0 d5 38 bc e7 26 ec bc
       0.0031673252 -0.02527006 -0.011281446 -0.028827144
000020 49 01 44 bb a9 fe bb bc 68 0c ce bb 3e 8e 83 bc
       -0.0029907993 -0.02294858 -0.0062881 -0.016059037
000030 6d 6b 2d 3d b8 67 0f bd 3b d6 ad bb 96 8a 95 bc
       0.042338777 -0.035011023 -0.0053050793 -0.01825456
000040 c1 fd bf bc 78 60 08 bc a8 be 73 bc 91 58 ce bc
       -0.023436429 -0.008323781 -0.014876999 -0.025188716
000050 0e 72 b8 bc 8d 98 58 ba 80 2d 38 bb d2 2c d4 3c
       -0.022515323 -0.0008262478 -0.0028103292 0.025900278
000060 8a 55 d1 bc 28 b3 1f 3c 2e 30 b4 bb 72 4e c3 3c
       -0.025553484 0.009747304 -0.0054989075 0.023841117
000070 ea 9b 45 bc c9 70 d2 ba bb 48 bd bc 9b c6 9f bc
       -0.012061099 -0.0016055341 -0.02310597 -0.019503882
000080 b6 52 8b bc 77 5b 2a bc 9a ee 7c bc ee 5f 88 bc
       -0.017007213 -0.0103977835 -0.015437746 -0.016647305
000090 a3 73 6e bb 41 3f 1b ba 6c c6 7f 3c f7 3f 50 39
       -0.0036384843 -0.00059222063 0.015611272 0.00019860255
0000a0 58 69 27 bb 10 0a 15 3c 50 bf 9c bc cb fa 6a bc
       -0.0025544968 0.009096637 -0.019134194 -0.01434202
0000b0 f1 23 33 b9 88 c9 c2 bc 4b a7 90 3c 1d fa f7 3a
       -0.0001708416 -0.023777738 0.017657897 0.0018919144
0000c0 ba 6c f6 bb 35 3b 71 3c 12 4d 36 3b 2c 1e a5 bb
       -0.0075202854 0.014723589 0.0027816934 -0.005038997
0000d0 e0 e2 2c bc ad db ec bc 0f ab f3 3b e7 c6 15 bd
       -0.010552138 -0.028913343 0.0074361633 -0.03656664
0000e0 7c 4b 36 39 d3 bf 3d bc 08 0a 25 bc 03 12 75 bc
       0.00017384993 -0.011581379 -0.010073192 -0.014957908
0000f0 b8 2d ce bc 26 9f 1c bc de a8 3a 3a 1d 2e 55 bc
       -0.025168285 -0.009559428 0.00071205 -0.013011483
000100 1c 76 07 bc ec 01 bd bb 81 6b dc 3b d7 f4 a2 3b
       -0.008267906 -0.0057680514 0.0067266827 0.004973035
000110 c5 4c f2 bb 4e 4a c0 3c 32 3b 75 bc 3f 2a a0 3a
       -0.0073944055 0.023472931 -0.014967727 0.0012219622
000120 b3 c9 68 bb b7 5b 7a bc 67 57 17 3c 73 2a 90 bb
       -0.0035520613 -0.015280656 0.009237147 -0.0043995916
000130 5a 2f 81 bc aa 1a 01 bd 24 83 d8 bc 21 2a 09 bb
       -0.01576965 -0.03151957 -0.02642972 -0.0020929652
000140 da 08 20 3a 7e 6e 9c bc 5e 48 a1 bc 69 78 00 bc
       0.00061048346 -0.019095656 -0.019687828 -0.007841208
000150 ec 2e b9 bc 0f 1a dd bb 7b bf c8 bc b9 af 86 bc
       -0.022605382 -0.006747491 -0.024505368 -0.016441213
000160 07 41 51 bc 14 4b a8 ba bd 54 ef bb 9b fe 35 bc
       -0.012771851 -0.0012839758 -0.0073038028 -0.011108066
000170 a8 77 c7 bb 6b b2 64 bc 19 81 d1 3a 26 8a 55 bc
       -0.006087262 -0.013958554 0.0015983909 -0.013033425
000180 41 ef 53 bc 1e d1 be bc d4 aa ac bc 7d 2f 38 bc
       -0.012935461 -0.023293074 -0.021077551 -0.011241791
000190 0c 34 5a ba 1b a5 a5 bc b4 53 fc bb 69 d9 78 bc
       -0.00083237956 -0.02022033 -0.007700408 -0.015188553
0001a0 1d 36 57 bb 43 a6 da bb 0a ac 6d bc a1 d3 09 bd
       -0.003283865 -0.006672652 -0.014506349 -0.03364909
0001b0 4e 2c 1c ba 95 db 65 bc 14 6a 8b 3a 00 a8 5d bb
       -0.00059575296 -0.014029403 0.0010636472 -0.003382206
0001c0 80 43 19 3c 64 06 8b bb 45 c4 46 bc d1 05 19 bb
       0.009354472 -0.004242705 -0.012131755 -0.0023349414
0001d0 04 8c af bc 72 79 e6 ba a4 90 b8 3b a5 64 27 bc
       -0.02142907 -0.0017583801 0.005632477 -0.010216867
0001e0 4f e0 fa bc 5c 8d 43 3a e6 7c 50 bc 98 c8 2e bc
       -0.030624537 0.0007459724 -0.012725091 -0.010667942
0001f0 68 6e ad bc 5d 8e 6b bc 2a 4a c2 ba e2 b2 b2 bc
       -0.02117081 -0.014377204 -0.0014823128 -0.021813814
