result/flat_rl/model/final_model.pth (torch, 938299 bytes, 45 tensors)

backbone.0.weight f4 [64, 170]
000000 5e bf 34 3e b5 86 af bd 74 19 3a be 07 37 f6 bc
       0.17651126 -0.08570615 -0.18173772 -0.030055536
000010 9e b7 0b be 61 31 b2 bd 3a 31 10 be 5b 71 c6 3d
       -0.13644263 -0.087008245 -0.14081278 0.096895896
000020 f3 f7 b1 bd 87 f1 07 bd 0a 7f a7 3d 43 a2 00 be
       -0.08689871 -0.033189323 0.08178528 -0.12561898
000030 73 81 03 be a0 63 5f be 3c 1d 0b be f1 e2 dd bd
       -0.1284235 -0.21815348 -0.13585371 -0.10834301
000040 d9 50 b1 3d b2 63 a7 3d 26 c9 04 3d da 80 85 be
       0.086579986 0.08173312 0.032418393 -0.26074868
000050 d4 55 be 3c ac 59 4a 3e 6c a1 09 3d f7 49 bb bd
       0.023234285 0.1976077 0.03360121 -0.09144967
000060 ab 94 03 3e 75 8d bb 3d a4 43 42 bb d8 bf e5 3c
       0.12849681 0.0915784 -0.0029642368 0.02804558
000070 d3 c7 75 3d fa 59 1a be 82 30 08 bd 90 4f 85 bd
       0.06000502 -0.15073386 -0.033249386 -0.06509316
000080 5a 83 83 3a e1 e2 7f be 85 f7 0f 3d cd 93 de bd
       0.0010033653 -0.24988891 0.035148162 -0.108680345
000090 f0 9a 46 3d 57 fa e2 ba 52 7c 64 3e 6a 86 ae 3d
       0.048487604 -0.0017317039 0.2231305 0.08521731
0000a0 ba e3 1a bd 7c 6d 9b bd a2 a2 9a bd dc 8c 96 3d
       -0.037814833 -0.07589242 -0.07550551 0.073510855
0000b0 0f ed 9f 3d 8a ca cb 3d ce 87 de bd 34 3b 6b bb
       0.07808887 0.09950741 -0.108657464 -0.0035893442
0000c0 9d ec 8f 3d 00 3b 9f 3d a0 57 46 3c 6c d4 be 3d
       0.07027552 0.07774925 0.012105852 0.0931786
0000d0 50 ed 34 be d3 d5 00 3e 82 b0 64 bd b4 c9 a1 3d
       -0.17668653 0.12581567 -0.055832393 0.078998
0000e0 3e f5 72 bd 90 7a 2c be da dc 9c bd 78 fb 61 3e
       -0.059315912 -0.16843629 -0.076593116 0.22068584
0000f0 13 e8 48 ba 13 5b bc 3b 75 e4 f5 3d ac bc ca bc
       -0.0007663976 0.0057481616 0.12006465 -0.024748169
000100 f5 a5 08 bc 4a 19 4e 3e 0f 3e 41 bd df 6f ad 3d
       -0.0083403485 0.20126835 -0.047178324 0.08468603
000110 bb 86 c8 3d 04 8e 16 3e c0 96 9e 3d bd 22 f6 3d
       0.09791323 0.14702612 0.07743597 0.120183446
000120 ec de 66 bc 0d 8a ae 3d 66 bf 03 be cd b4 11 b8
       -0.014091235 0.08522425 -0.12865981 -3.4739078e-05
000130 b5 dd e7 bd ce ca 89 3d b3 49 93 3d 25 ed 43 be
       -0.11321584 0.06728135 0.071917914 -0.19133432
000140 0b 99 56 3d 92 8e 96 3d f5 12 7c bc 81 d5 a4 bb
       0.052392047 0.07351412 -0.015385379 -0.0050303345
000150 b6 d8 33 3e a3 70 9a 3d 3c 8e 87 3e 89 03 ef 3d
       0.17563137 0.07541015 0.26475704 0.11670596
000160 41 5f 13 ba 65 3a 2f 3e 58 1e a1 3c 15 a5 f7 bd
       -0.0005621799 0.1711212 0.01966779 -0.12092034
000170 b3 0f e2 3d d1 3c 38 bd 4a ee 1b bd db 8e 3e be
       0.11038151 -0.044979874 -0.038069047 -0.18609183
000180 a5 f1 28 bd 53 1f 07 3e 61 01 98 bd 81 48 8f bd
       -0.041246075 0.13195543 -0.07422138 -0.06996251
000190 4e 52 da bb e0 3d 0f 3e 7a a8 2e 3d a1 dc d8 3d
       -0.0066626435 0.13988447 0.04264114 0.105889566
0001a0 38 83 ab bc 84 a9 04 bd bb 4c 7c 3e 6b 6a 07 be
       -0.020936593 -0.032388225 0.24638645 -0.13224189
0001b0 0f 5f bf 3c b3 3c 2a 3e a4 cd eb 3d f7 ec b8 bd
       0.023360757 0.16624717 0.11513832 -0.090295725
0001c0 47 59 ba bb 54 12 8e bb cd 9b 10 3e 86 7b e5 3d
       -0.005686912 -0.004335681 0.14121933 0.11205201
0001d0 a3 56 00 be c5 1a 5c 3d fa e6 82 bd 0f 74 53 3e
       -0.1253305 0.053736467 -0.063917115 0.20649742
0001e0 6b 0c d0 bc 64 6d 06 be 94 c1 50 3d 29 a3 0c bd
       -0.025396546 -0.13127667 0.05096586 -0.03433529
0001f0 b6 0a a7 bd 56 43 1d be 98 f1 f8 ba 44 07 4b 3d
       -0.0815634 -0.15357718 -0.0018992899 0.049567476
000200 71 b7 0a be e8 33 d8 3c 7c bc ba bd 05 20 20 3e
       -0.1354654 0.026391938 -0.09117982 0.15637214
000210 2e cb 28 3d 97 24 89 3d ba 70 bd bc 94 6c 25 3d
       0.041209392 0.06696432 -0.023125041 0.04038675
000220 3d 90 a7 bc a4 c8 2f 3b 9d 67 0c be b8 79 a8 bc
       -0.02045452 0.0026822472 -0.137114 -0.020565853
000230 c4 45 2c be 03 71 bd 3c 5e 41 84 bc 18 7c e0 bd
       -0.16823488 0.023125177 -0.01614445 -0.10961169
000240 32 3d 0f 3e e5 17 ac bd 4a 37 f9 bd 40 6f 94 bb
       0.13988188 -0.08402995 -0.12168749 -0.0045298636
000250 31 f9 fb bd 07 2b 7e be c6 e6 5e 3d 81 96 80 bd
       -0.12303389 -0.24821101 0.0544193 -0.06278706
000260 01 01 cc 3c 63 ed 13 be 8f 7b de 3c 5b 53 8b bd
       0.024902822 -0.14446025 0.027158527 -0.06803008
000270 1b c7 b9 bd f0 e4 74 be 8e 67 aa 3c ab 99 3c 3e
       -0.090711795 -0.23915458 0.020801332 0.18417995
000280 57 7e 5a 3b 20 fd 9a bd 00 0a 3b 3e 6a 94 a6 bd
       0.0033339465 -0.07567811 0.18265533 -0.081337765
000290 5e 93 2f 3c 10 a5 89 3d 06 65 d3 bc 91 66 ac bc
       0.010716287 0.06720936 -0.025805008 -0.021045001
0002a0 66 eb 00 3e 65 1f c8 bd 13 d0 a3 bd bd fc 05 be
       0.12589797 -0.09771613 -0.079986714 -0.13084693
0002b0 3b 0f 2c 3e 80 f2 ac bd 9f 26 c0 39 1f 7f 96 3c
       0.16802685 -0.08444691 0.0003664987 0.018371163
0002c0 81 22 e5 3c ec 0c 47 3e 12 9c c6 3c ce e8 b4 bc
       0.027970554 0.19438523 0.024244342 -0.022083666
0002d0 d6 5c 3b 3e 2f ad ab bc 72 46 4b bd c9 15 75 3e
       0.18297133 -0.020956604 -0.04962773 0.23934092
0002e0 26 d5 ec 3d a6 20 31 bd 11 aa 54 3c 63 9e 0d 3d
       0.11564092 -0.043244027 0.01298 0.034574877
0002f0 3e af d2 3d 22 7d d2 bc 01 dc 6f be 98 68 12 3e
       0.10287331 -0.025694434 -0.23423769 0.14297712
000300 7d 71 42 be 81 19 c6 bc 12 38 37 be 2c b5 87 be
       -0.18988605 -0.024182083 -0.17892483 -0.2650541
000310 c1 75 60 bc ec a8 cc 3d c3 9e 2e be 73 d6 b9 3d
       -0.01369995 0.09993157 -0.1705275 0.09074106
000320 e5 32 8d bc ac dd eb bd 79 b2 57 be 16 23 93 bd
       -0.017236182 -0.1151689 -0.21064176 -0.071844265
000330 8b 29 ba 3d 95 5b 9e 3d c9 21 3b 3e bc 3b fc bd
       0.09089955 0.07732312 0.18274607 -0.12316081
000340 15 e2 a5 bb ca 75 d1 bd 2e a6 8a 3d 31 21 e1 bd
       -0.0050623515 -0.102275446 0.067699775 -0.10992659
000350 10 a3 29 3e 25 e2 09 3e 94 5b 31 3e 43 6e 22 3e
       0.1656611 0.13465174 0.1732009 0.15862374
000360 a6 6f c6 bd b6 b7 8d 3c e1 f5 b0 bd 10 e6 62 3e
       -0.09689264 0.017299514 -0.08640648 0.22158074
000370 2d 88 1a be 92 b6 70 bd e4 a8 1c 3e b7 f7 df 3d
       -0.1509101 -0.058767863 0.15298802 0.1093592
000380 29 d7 5a bd a1 9c 8b 3d ac 7b 55 bd c9 27 c4 3d
       -0.05342785 0.06816984 -0.052119896 0.09577901
000390 ff 8e af 3b 9b 78 56 3c 63 32 08 be 83 20 3b be
       0.0053576226 0.013090278 -0.13300471 -0.18274121
0003a0 2c a2 3f 3d cf d8 04 3d 8c 69 32 bd ae 27 22 3c
       0.04678552 0.032433327 -0.04355769 0.009897156
0003b0 8a 70 35 bd 8e 2f 63 bb b9 bd 9e 3c bb 34 66 3a
       -0.04429678 -0.0034665796 0.019377576 0.0008781661
0003c0 33 18 e2 bd 72 3e 02 be 09 c7 7b b7 53 e9 f9 3d
       -0.11039772 -0.12719133 -1.5007107e-05 0.12202706
0003d0 59 4d cd 3d 04 ec 0b be a6 4f e9 bd 70 93 d5 3d
       0.100245185 -0.13664252 -0.11392145 0.10428512
0003e0 5f 4a 81 3d a0 7f 54 3d a4 bf 8e 3d ad 7a 5f bd
       0.06313013 0.051879525 0.06970146 -0.054560352
0003f0 45 f5 9a 3d c0 a1 14 be db 61 ab 3e 00 1b a2 3d
       0.07566313 -0.14514828 0.33473095 0.07915306

backbone.0.bias f4 [64]
000000 26 70 c9 3a 6f 18 01 bc f2 fc bd bb b0 9b e8 bb
       0.0015368506 -0.007879361 -0.0057979757 -0.0070986375
000010 00 00 00 00 b2 d9 73 bb 47 4f 92 bb 5d 6e 3d ba
       0.0 -0.0037208614 -0.004465017 -0.0007226223
000020 8b f5 0c bc 50 b8 18 3b 16 5a f9 ba 62 be df ba
       -0.008603464 0.0023303218 -0.001902404 -0.0017070288
000030 de 8d a5 3b 54 3c 51 b9 0d d8 0f ba 8c 4d f7 3a
       0.0050523123 -0.00019954267 -0.0005487211 0.0018867715
000040 0b 0b b3 bb 37 95 19 bb 59 3c f1 3a 00 00 00 00
       -0.005463963 -0.0023434886 0.0018404826 0.0
000050 09 98 d9 bb 00 00 00 00 bb 55 c1 ba 00 00 3d bc
       -0.0066404385 0.0 -0.0014750281 -0.0115356445
000060 57 9d ac ba d9 06 20 bc 6f 76 a2 ba 4b aa 78 bb
       -0.001316945 -0.009767258 -0.0012394915 -0.00379433
000070 01 6a 07 bc bd 23 10 bc 65 55 10 bb 00 00 00 00
       -0.008265019 -0.008797583 -0.0022023555 0.0
000080 9f 37 9a 3b 5e 7e aa 3a 00 00 00 00 a5 88 90 ba
       0.0047063376 0.0013007631 0.0 -0.0011027051
000090 11 77 c9 bb d9 a9 31 bb 2e 5d 54 bb 03 ba 42 bb
       -0.006148227 -0.0027109294 -0.0032404172 -0.0029712922
0000a0 c8 ce ed ba d3 26 c2 b9 ca bd 7a bb aa 4b b2 bb
       -0.0018143291 -0.0003703149 -0.0038260096 -0.0054411488
0000b0 00 00 00 00 00 00 00 00 9a 27 c0 39 ec 1e d0 ba
       0.0 0.0 0.000366506 -0.0015878356
0000c0 e8 43 83 bb 65 8d d1 38 20 f9 0c bb 00 00 00 00
       -0.004005898 9.9922334e-05 -0.0021510795 0.0
0000d0 06 48 1c 3a 88 81 76 ba 6d 65 cc ba df 30 89 3a
       0.000596166 -0.0009403457 -0.0015594192 0.0010466835
0000e0 8b a4 31 ba 62 ed a3 bb 59 98 02 3b 16 f4 52 3a
       -0.0006776533 -0.0050026635 0.0019927232 0.0008047236
0000f0 d4 0d 88 3a 9d b2 21 3b 6f d8 0b bb 4a 38 b6 bb
       0.0010380098 0.0024673112 -0.0021338721 -0.0055609094

backbone.3.weight f4 [128, 64]
000000 1f 31 1f 3d 4d 05 7e 3e 8e 4f 97 3d 54 e2 fa 3d
       0.038865205 0.2480671 0.07388221 0.122502
000010 0f 1c e0 3d 28 0c 76 bd a9 5b 45 bd d3 6c 8c 3d
       0.10942852 -0.060070187 -0.048183117 0.06856694
000020 03 af 64 be cd 4b 22 be 01 c7 98 bd 86 e6 9d 3d
       -0.22332387 -0.15849228 -0.07459832 0.077099845
000030 ff 2a d3 bb 9d 98 0f 3b d0 9d 3f 3e 41 e4 52 be
       -0.0064443345 0.0021911033 0.18712544 -0.20594884
000040 c8 36 a1 3d 2d 7b 0a bc f5 85 5a bd a3 55 dd 3d
       0.07871777 -0.008452219 -0.053350408 0.108073495
000050 6a 25 02 3e 40 bf db bd 3e 55 00 be 89 a8 12 3e
       0.12709585 -0.107298374 -0.12532517 0.14322104
000060 0c 53 ba 3d 20 43 31 be 58 6f 42 3d 9a fe 04 be
       0.09097871 -0.17310762 0.047469467 -0.12987748
000070 ae b2 1b 3e 0f cc 01 be ab ff 7a be 72 09 62 bd
       0.1520488 -0.12675498 -0.24511592 -0.05518479
000080 03 0e 8d bd c7 1e 35 3c 2b bb d0 bd f1 85 e9 bd
       -0.06887438 0.011054701 -0.101919495 -0.114025004
000090 3f 03 2a 3e 11 0a 3d be 45 67 19 3e c5 04 56 bd
       0.16602801 -0.18460871 0.149808 -0.052250642
0000a0 d8 0c ea bd 12 c5 6e be c8 29 02 3e 09 09 dd 3d
       -0.11428231 -0.23317364 0.12711251 0.10792739
0000b0 e7 35 d5 3d 85 4e a9 bd fe bc 52 3d e5 d7 95 3d
       0.10410672 -0.082669295 0.05144977 0.07316569
0000c0 33 ba 38 3e 76 ca 81 bd fa d4 e6 3d ee 2e 5e be
       0.1803978 -0.063374445 0.11271091 -0.2169759
0000d0 0d a4 d0 bd 2e d4 e9 3d 5f d3 d6 3c d3 f4 2b 3d
       -0.1018754 0.11417423 0.026223836 0.04198153
0000e0 9a 9f 56 be 5f 60 dc 3d 68 0e 48 bd ac df 2e bd
       -0.2095932 0.10760569 -0.048841864 -0.04269378
0000f0 59 e7 33 bc 2c 42 21 bd 68 69 7c be 8f 3a d0 3c
       -0.010980451 -0.039369747 -0.24649584 0.025418548
000100 e8 b7 17 be fc d3 30 be 11 49 6d be 67 6e e9 bd
       -0.14816248 -0.17268366 -0.23172404 -0.11398011
000110 f3 64 b2 bd ce 2c d8 3d a3 ce 38 3d a1 f7 a7 3d
       -0.08710661 0.10555421 0.04511894 0.08201528
000120 b6 01 ba bd 3b 23 5c 3c c7 9b 21 be c3 d3 92 3e
       -0.090823576 0.013436134 -0.1578208 0.28677186
000130 ca 5e 6d 3c 53 93 1d be b3 aa 45 3d 74 0f 0f 3e
       0.0144879315 -0.15388231 0.048258495 0.13970739
000140 0d f2 1a be 70 67 f3 bd 41 cb 63 3d 54 18 0f 3e
       -0.15131398 -0.118849635 0.05561376 0.13974124
000150 61 4a 9c bc 3f 6e c1 bd 77 14 3e be cf 5c a0 3d
       -0.019078435 -0.09444856 -0.18562494 0.07830202
000160 9c cc 06 3d d9 1b 2d be b6 fa 3f 3c d9 ea 64 be
       0.032909974 -0.16905154 0.011717489 -0.22355212
000170 fc 60 ba 3d c7 9a ca bd 4c 8a 42 3d 77 f3 d7 3d
       0.091005296 -0.09892803 0.04749517 0.10544484
000180 07 ce fd 3c 20 ff 0f 3e 31 09 3a be 06 e2 17 bc
       0.03098203 0.14062166 -0.18167569 -0.009270197
000190 ad bf ef bd 07 6d 3c be 4c 9d c5 bb e8 38 4f 3e
       -0.11706481 -0.18400966 -0.006030714 0.20236552
0001a0 52 02 eb 3c 89 73 cc bb 1c 7e 84 3d 21 fc 81 bd
       0.02868763 -0.006239359 0.06469366 -0.06346918
0001b0 18 09 17 bd 19 85 67 3e 55 d3 95 bd b9 e3 cd 3c
       -0.036873907 0.22609366 -0.07315699 0.025133
0001c0 57 a1 24 be fe a5 d1 bd ef 36 36 be b7 ec 38 be
       -0.16077171 -0.102367386 -0.17794393 -0.1805905
0001d0 8a eb 7d 3d d6 b9 6f 3d 74 dc f5 3d b3 a0 9a 39
       0.061992206 0.058526836 0.12004939 0.000294929
0001e0 3d 31 06 3e 74 46 fc 3d c7 bb 5d 3e 91 13 73 be
       0.1310472 0.12318125 0.21653663 -0.23737933
0001f0 b3 18 e4 3c 9d 73 e3 3c 8f 1b cf bd 9a e5 a1 3d
       0.027843809 0.02776509 -0.10112678 0.07905121
000200 4a 3f 66 be f0 44 be be 89 f7 85 3e f7 e5 a8 bd
       -0.2248508 -0.3716197 0.26165417 -0.08246987
000210 f1 8b b7 3d 1c 78 1e 3c 79 9e c5 3d 1a ed 29 3e
       0.089622386 0.009672191 0.09649367 0.16594353
000220 e6 c2 e4 bd 77 9f 8d be 3d ef 64 bd df 2c a2 bd
       -0.111699864 -0.27660725 -0.055892218 -0.07918715
000230 be 38 eb bd f1 5a f8 3d b8 a4 14 3e 25 15 32 bc
       -0.11485432 0.12126721 0.1451596 -0.010869299
000240 a5 40 38 3e 8d 0c 81 bc 53 79 50 3c 9b 98 ef bd
       0.1799341 -0.015753055 0.012724238 -0.11699029
000250 c6 36 31 be 59 41 67 be e1 15 16 bd 49 1e b9 3c
       -0.1730605 -0.22583522 -0.03664196 0.022597449
000260 6e ad 4b bc fe 4c e5 bc 67 2e a4 3d 88 a7 8c 3b
       -0.012431486 -0.027990814 0.08016663 0.004292432
000270 89 e4 c7 3d 59 38 22 bd 68 59 15 3e 77 3a fd 3d
       0.097603865 -0.03960452 0.14584887 0.12364667
000280 ed ee 1e bd 42 d2 cb bc 83 b1 96 3e 30 81 1f 3e
       -0.038802076 -0.024880532 0.29432306 0.15576625
000290 8b 08 1e be 19 0d e4 bd 47 e1 47 3e c6 0e d3 bd
       -0.15432946 -0.11135311 0.1951953 -0.10305552
0002a0 c8 af ed 3d f7 83 f9 3a 80 ff bd bc 64 a1 a7 bd
       0.11605793 0.0019036521 -0.023193121 -0.0818508
0002b0 9f b1 58 3c ad f5 a3 3d 2d f5 3c 3e 4b fd c3 3c
       0.013225942 0.08005843 0.18452902 0.02392449
0002c0 b3 00 86 3e c0 38 43 3e df c2 42 bd 4b 5c 8a 3c
       0.26172408 0.19064617 -0.047549125 0.016889712
0002d0 df 69 24 bd c0 6b 62 be 26 c5 19 3e 7d 70 ff bd
       -0.04014003 -0.22111416 0.15016612 -0.12472627
0002e0 f5 29 94 bd 6d 8d 82 bd a4 bb 3d 3d 15 78 64 be
       -0.07234565 -0.06374631 0.046321526 -0.22311433
0002f0 33 ba 5b bb e0 9e 60 3d 82 9a 0e 3d 58 97 26 3c
       -0.0033527731 0.054839015 0.03481532 0.010167919
000300 6a 01 33 3e 56 cd 3d 3d ff 7b b5 bd 3c 05 30 3e
       0.17481008 0.0463384 -0.08861541 0.17189497
000310 c5 94 f2 3c 72 52 7d 3e 88 e2 16 3d 60 65 0d 3e
       0.029611954 0.24738482 0.03683713 0.13808203
000320 7e 40 f5 bc 88 35 2e be fa 5e 88 3e 38 58 8d bd
       -0.029937979 -0.17012608 0.2663496 -0.06901592
000330 d1 94 46 bc ec 29 63 bd 4e d6 0b 3e af ad 20 bd
       -0.0121204415 -0.0554599 0.1365597 -0.039228138
000340 89 d4 2a 3e 9c 94 25 bd bb 95 bc 3d f2 e9 17 3e
       0.16682638 -0.040424928 0.09208246 0.14835337
000350 79 b8 3d bd 57 c6 7d bb f5 04 f2 bc b8 7b b9 3c
       -0.046318505 -0.0038722956 -0.02954338 0.022642002
000360 29 cd 53 bc 73 63 16 3e 0e 28 24 3e 80 74 cd bb
       -0.012927332 0.14686374 0.16030905 -0.0062699914
000370 f3 b5 38 be 0a c4 a4 3c 4c 94 6c bd 04 8d 1c 3d
       -0.18038158 0.02011301 -0.057758614 0.03822042
000380 86 d1 ba 3d 6a 62 01 be cc d0 8e 3e 07 17 aa 3d
       0.09121995 -0.12635198 0.27893674 0.08305173
000390 98 04 dc 3c f2 a9 18 3e 7a d8 f9 bd 29 d4 00 be
       0.02685766 0.14908579 -0.12199493 -0.12580933
0003a0 8a b1 74 3d b1 22 c7 3c 8a d3 0b 3d ce 69 5f 3d
       0.059739627 0.024308534 0.034137286 0.054544263
0003b0 42 e1 b1 bd f1 8b 1e bd 35 c5 ac be 6d ff df 3d
       -0.08685543 -0.038707677 -0.33744207 0.109373905
0003c0 af 9d a5 bd f5 44 af 3c 93 74 9a be 65 22 5b bd
       -0.080867164 0.021395186 -0.30167064 -0.053499598
0003d0 b4 c3 99 bd 9e 7f 0c be 83 ea 2f be 17 ce a5 bd
       -0.075080305 -0.13720557 -0.17179303 -0.08095949
0003e0 21 93 84 bd 33 03 40 3e 3f d9 1d bc d0 68 5e 3e
       -0.06473375 0.1875122 -0.009634315 0.2171967
0003f0 2f 13 0b be 49 9b e1 bd 36 73 81 3e 25 f9 71 3c
       -0.13581537 -0.110159464 0.2528321 0.014768873

backbone.3.bias f4 [128]
000000 0d 61 98 bb 02 da 2d ba b4 9a b1 bb 4b 45 b1 3a
       -0.004650241 -0.0006631912 -0.0054200534 0.0013524679
000010 9a 29 ed 3b 5b 6b 92 bb aa 2c f9 3a 58 d5 bc 39
       0.0072376253 -0.004468364 0.0019010503 0.00036017108
000020 5a 9c 00 3a ce d0 0c 3b 56 dc 0e bb 99 65 9e bb
       0.00049061107 0.0021486762 -0.002179881 -0.0048338887
000030 77 f8 42 bb 8b c4 6e 3a 89 84 52 bb a4 20 35 3b
       -0.0029750147 0.00091082667 -0.0032122454 0.0027637864
000040 30 7a ad ba b2 5c 3c 3a 1d 70 a6 39 56 8b 5d ba
       -0.0013235267 0.00071854435 0.00031745518 -0.00084512436
000050 72 be 6f 3a 3b 34 29 bb 87 28 ec b8 13 71 9a bb
       0.0009145505 -0.0025818485 -0.00011260906 -0.0047131865
000060 80 9c 62 bc da 94 e1 ba 09 9e 5e b9 89 59 b6 bb
       -0.013831258 -0.0017210499 -0.00021230443 -0.0055648726
000070 01 ce e2 ba 9e 51 5b 3a b6 82 4c ba d0 af cf bb
       -0.0017303826 0.0008366349 -0.000780146 -0.006338097
000080 e2 5e ad b9 54 cf a9 3b fa 4c 4a 3a 1b 13 2d 3a
       -0.00033067825 0.005182186 0.0007717159 0.0006602273
000090 45 b1 fd 3a 5b c4 85 3b e0 b5 f9 ba c6 fb da 38
       0.0019355199 0.0040822453 -0.0019051395 0.000104419465
0000a0 8a a5 97 3a fc 1f 50 3a e9 b6 61 bb 23 e1 ee bb
       0.001156972 0.00079393364 -0.0034441298 -0.007290022
0000b0 01 ae 7a bb 8c a8 8c 3a cb e1 f2 bb 0f a0 0a bb
       -0.0038250687 0.0010731383 -0.0074121705 -0.0021152531
0000c0 fb 99 1d bb ed 81 49 3a 7a 48 8b bb bc 9d 53 bb
       -0.0024048078 0.0007686902 -0.0042505832 -0.0032290062
0000d0 88 80 8a 3b 16 06 bb 3a 05 9b de ba a5 3e 2a b9
       0.004226748 0.0014268782 -0.0016983455 -0.000162358
0000e0 02 a0 6d bb e8 e3 0e 3b 62 ae 3d bb e4 cb b3 b9
       -0.0036258702 0.0021803323 -0.0028943052 -0.0003429345
0000f0 d4 6a 88 3b 4b f2 2f 3a 5a e7 05 bb 9c ec 10 bc
       0.0041631255 0.00067118247 -0.0020432086 -0.008845475
000100 4f c4 0a bb 5d ef f8 bb c7 e0 81 bb e2 04 bc b9
       -0.0021174138 -0.0075968937 -0.003963563 -0.00035861792
000110 bb 5c 50 ba a7 e0 a0 3b b8 14 dd 39 84 36 f7 3a
       -0.0007948388 0.004909593 0.00042167841 0.0018860851
000120 74 5a 00 3b 17 83 48 39 2f 95 85 3a ad 52 5e bb
       0.0019585164 0.00019122321 0.0010191555 -0.003392379
000130 a7 97 91 bb 0f bb 5f ba cd 08 1a 3a 3e b9 31 38
       -0.004443127 -0.0008534649 0.0005875945 4.237261e-05
000140 42 21 35 3b 37 e4 ae ba ba e5 0a ba 28 68 4f 3b
       0.0027638231 -0.001334316 -0.0005298514 0.0031647775
000150 15 8d 9a bb 52 01 2d 3b d5 0a 3a b9 d2 10 5d bb
       -0.0047165253 0.0026398492 -0.00017742378 -0.003373195
000160 c0 51 78 bb af bc 6f ba 03 82 57 bb 55 3e 2f 3b
       -0.0037890524 -0.00091452425 -0.003288389 0.0026740034
000170 86 f1 10 bb e4 d3 b3 b9 0d 26 80 bb e6 db a0 3b
       -0.0022116615 -0.0003429941 -0.003910786 0.0049090264
000180 a2 70 a6 3b 3a 13 f0 ba e5 8c d9 ba 60 39 ae 3b
       0.005079345 -0.0018316277 -0.0016597776 0.005316898
000190 4b de 57 bb 10 1e d9 3a 46 0f f2 bb 51 db 8d 3a
       -0.0032938893 0.0016564745 -0.0073870746 0.0010822808
0001a0 94 3c 32 bb cc aa 20 bb 8d df 98 3a 2c 0d c9 ba
       -0.0027196752 -0.0024515865 0.0011663303 -0.0015339009
0001b0 02 c6 25 bb ff d3 97 3a ac 7e bd 39 ab 89 70 bb
       -0.0025295024 0.0011583566 0.00036143267 -0.003670315
0001c0 c0 bc 86 bb 64 ff cf b9 07 5c a1 3a 3a 4c 34 bb
       -0.004111856 -0.00039672398 0.0012310751 -0.0027511255
0001d0 fa 8f 50 bb 3b a5 8f bb 43 5f 13 3b 03 21 c2 bb
       -0.0031824098 -0.0043837107 0.00224872 -0.0059243455
0001e0 6b 52 44 bb 12 f7 1b 3a 7d 0f ca ba b8 21 24 bc
       -0.0029956352 0.0005949597 -0.0015415993 -0.010017805
0001f0 a8 22 01 bb 48 76 26 3b 58 7a 51 bb 71 85 bc ba
       -0.0019704495 0.002540009 -0.0031963792 -0.001438303

backbone.6.weight f4 [64, 128]
000000 e8 8f 40 be 3a 41 65 bd b0 ab 98 bd 99 91 79 3d
       -0.18804896 -0.055970408 -0.07454622 0.06092987
000010 0e 2e 2f be 6d 86 d6 3d 51 f8 b1 3d 48 6b 9b 3e
       -0.17107412 0.104748584 0.08689941 0.30355287
000020 0b 51 0c be 78 3e 46 3b 31 09 8b bc 9a 27 16 b8
       -0.1370279 0.0030249637 -0.016972156 -3.579967e-05
000030 8f 62 a3 bd a8 af 96 3c 93 6a 93 bd 51 5c 85 3c
       -0.07977783 0.018394306 -0.07198062 0.016279371
000040 91 8a c8 3d b5 37 00 3e 58 48 bd 3c 6c 96 6b be
       0.097920544 0.1252125 0.023105785 -0.230066
000050 c4 3e 93 bd 32 2f b6 3d b1 2b 10 3e cd 0d 70 3e
       -0.07189706 0.088957205 0.14079167 0.23442765
000060 12 04 da bd 02 85 7f bd 13 20 8d 3d 3f 10 0b ba
       -0.106453076 -0.062382706 0.06890883 -0.000530485
000070 8d 64 7d be ed f2 b9 3d 57 4e da 3c 23 9f e1 bd
       -0.24745388 0.090795375 0.026648683 -0.11016681
000080 da 23 d1 3d f1 a0 14 3e c6 fe 41 bc 93 29 b5 3c
       0.10211916 0.1451452 -0.011840528 0.02211455
000090 25 92 9c 3e 22 e3 84 be a5 f0 9e bd 78 f6 eb 3d
       0.3058025 -0.2595454 -0.07760743 0.115216196
0000a0 57 1d ba bd 2d 29 28 3e 33 6e 8e bc ed 6b e3 3c
       -0.090876274 0.16421957 -0.017386531 0.027761424
0000b0 12 fc 7d bb 7a a4 1b 3e 22 a7 16 3d 04 91 33 3d
       -0.0038754982 0.15199462 0.036780484 0.04383947
0000c0 7b c7 05 be 29 fa 0e bd f9 eb 3e bd 60 3a af bd
       -0.13064377 -0.03490654 -0.04661176 -0.08556056
0000d0 86 a0 1f 3d bf aa 62 be c8 15 41 be 41 3a 11 3c
       0.038971446 -0.22135447 -0.18855965 0.0088639865
0000e0 f5 72 12 3e 6e 41 f1 3d da dd 7f 3e 23 e9 ff bd
       0.14301665 0.11780058 0.24986973 -0.12495639
0000f0 38 ee 7c 3d 7e 71 51 bc d8 39 da 3d d1 2d 16 be
       0.06175062 -0.012783406 0.10655564 -0.14665915
000100 a7 00 39 be ad 4c 9d 3d 43 32 1d be aa 64 1b bb
       -0.18066655 0.0768064 -0.15351205 -0.0023711124
000110 d1 ef d4 3d db 1c d5 bb cd d4 bc bb 91 6e 48 3e
       0.10397304 -0.006503684 -0.0057626725 0.19573428
000120 2c ed 25 be 8b cd 86 be 92 67 93 3d cf 49 85 be
       -0.16203755 -0.26328692 0.07197489 -0.26032874
000130 26 89 6f be 42 1e ad bb a9 17 81 3d 19 58 3e bd
       -0.23392162 -0.005283148 0.06303341 -0.046470735
000140 5b 2a 78 3e c4 22 8d bd 2e 4a 08 bd ee 7b 19 be
       0.24234907 -0.06891397 -0.03327387 -0.14988682
000150 cc 60 e3 3c 07 24 b9 3d 02 9c 29 be b7 d4 af 3c
       0.027756117 0.09040075 -0.16563419 0.021463735
000160 28 52 2c bd 80 0a a2 bd 0a fa 95 3d 55 6b 89 3d
       -0.042070538 -0.07912159 0.07323082 0.06709925
000170 94 a3 26 bc 99 e7 14 3e 9e 7a f7 3d 9a e5 25 3d
       -0.010170836 0.14541472 0.12083934 0.04050217
000180 fd 6d 17 3e 26 f3 49 be 8a d0 00 3c 33 e3 11 3d
       0.14788051 -0.1972166 0.00786222 0.035617065
000190 04 10 c3 bc d7 f1 a8 3d 39 83 68 3c 84 c3 3a 3c
       -0.023811348 0.08249252 0.014191442 0.011399154
0001a0 43 ff 2c be 0b db 44 be df dd 3a 3e e2 88 99 3d
       -0.1689425 -0.19224183 0.182487 0.074968114
0001b0 6d 67 3f be e8 ce 30 3c 2d ed 39 3e b5 61 31 3e
       -0.18691798 0.010791518 0.18156882 0.17322429
0001c0 93 a5 09 3e ae e7 8d bd 5d 7d cb 3d f2 3d e5 bc
       0.13442068 -0.06928955 0.099360205 -0.02798364
0001d0 d1 80 85 3d e7 72 a3 3d 89 b7 25 bc f0 98 83 3e
       0.065187104 0.079809 -0.010114559 0.2570262
0001e0 c4 64 11 be 07 e8 dd 3d 9b f8 0c 3e 5f 34 5c bd
       -0.14198595 0.10835271 0.1376671 -0.053760882
0001f0 5b 9b b2 bd 72 24 93 bd c3 f0 2d 3c 79 0e c7 3d
       -0.08721038 -0.07184686 0.010616484 0.09719557
000200 06 df 37 bd e1 4f d0 3c f7 1d ee 3d 69 87 de 3c
       -0.044890426 0.025428714 0.11626809 0.027164178
000210 3d c7 40 3d d4 e7 46 3c cf c5 cc 3c e1 76 5b 3e
       0.04706501 0.012140233 0.024996666 0.21432067
000220 34 49 c4 bd f3 18 d7 3d c4 cc 1b be 9d dc 35 be
       -0.09584275 0.105028056 -0.1521483 -0.17759939
000230 09 36 ba 3d b9 62 43 3e de dd 2f be c7 b2 15 be
       0.09092338 0.19080628 -0.1717448 -0.1461898
000240 3f d8 05 3b 51 77 20 be 9d 40 11 be 68 45 c3 3d
       0.0020423082 -0.15670516 -0.14184804 0.095347226
000250 22 1b fb 3c 25 23 c2 3d eb 59 ff 3d 85 17 8a bd
       0.030652586 0.094793595 0.12468322 -0.06742767
000260 95 4b 36 bc de d4 ac 3d 87 f3 64 bd db aa 1e 3e
       -0.011126419 0.08439039 -0.05589631 0.15494864
000270 75 04 87 3d 80 8a 8c bd 2e 91 9e bd 41 4e 46 be
       0.06592647 -0.06862354 -0.077425346 -0.19365789
000280 3e 54 8f 3d e3 a9 23 be f6 6d ee bd 7c 3b 7d 3d
       0.0699849 -0.15982775 -0.11642067 0.061824307
000290 be 8c 93 bd 1d 41 42 bd a5 c0 e2 bd e1 4e 3f be
       -0.07204579 -0.047425378 -0.110719 -0.18682434
0002a0 9a 04 84 3c 20 08 f1 3c 54 b1 06 be e7 c6 19 be
       0.016115475 0.02942282 -0.13153583 -0.15017281
0002b0 8f 11 44 be d9 79 43 3d 45 dc 6c 3d ac 3c 9c bd
       -0.19147323 0.047723625 0.057827253 -0.0762876
0002c0 b7 37 a0 be a1 ce 6f bd a3 13 07 3d 09 90 eb 3b
       -0.31292507 -0.058546666 0.03297771 0.007188801
0002d0 de d1 ad 3d 99 7f ef 3d c8 1f 8f bd 13 5c 86 3d
       0.084872946 0.11694259 -0.06988484 0.065605305
0002e0 0e 59 2e 3e 23 cd 8b be eb 6b 7a bd ad 17 38 3e
       0.17026159 -0.27304944 -0.061138075 0.17977782
0002f0 e9 d3 e0 bd ac 24 dd 3d 79 a1 8a 3d cc 0a 63 3e
       -0.10977919 0.1079801 0.0676908 0.22172087
000300 c1 41 0b be cf da 89 3b fd f4 2d bb af a1 66 bd
       -0.13599302 0.004206992 -0.002654373 -0.056306537
000310 a0 7b 9a bc ac 70 8b be 0d cb 7c 3d 1b f8 23 bd
       -0.018857777 -0.272344 0.06171708 -0.040031534
000320 17 28 b1 bc 7c f9 86 3c c5 30 62 3e d4 c3 0e 3c
       -0.021625562 0.016476385 0.22088917 0.008713681
000330 e6 1c 25 3d 6d 5d 42 be d5 56 08 be 66 ca f5 3d
       0.040310763 -0.18980952 -0.13314374 0.12001495
000340 af 61 24 bd 4d a5 56 bd 84 13 35 be 80 af f9 bc
       -0.04013222 -0.052403737 -0.17683226 -0.030479193
000350 e7 cd 7b 3e 38 0e 86 3e 24 94 aa 3d 95 7f 21 3d
       0.24590264 0.26182723 0.08329037 0.039428312
000360 87 b8 a3 3a 48 f4 bb bd 22 d4 f0 3d d5 e0 2c 3e
       0.0012490907 -0.09177452 0.11759211 0.16882642
000370 c4 4c 4c bd a7 75 f9 3d 92 be 30 bc 71 7c 47 bd
       -0.049877897 0.121806435 -0.010787623 -0.04870266
000380 46 b2 54 3d 32 e6 b9 bd 5f 30 09 be 38 9f 29 3c
       0.051927827 -0.090771094 -0.13397358 0.010352902
000390 77 5d 1f bb 69 07 a5 3c 37 d0 d9 3c d4 27 ec bd
       -0.0024317184 0.020145135 0.026588542 -0.11531034
0003a0 66 7a a0 be a7 84 53 be cc f8 f3 bd d0 7b c5 bd
       -0.31343383 -0.20656072 -0.119126886 -0.09642756
0003b0 90 26 43 3e d6 2c 98 3e 5b 4c 88 be 0f 47 b7 3d
       0.19057679 0.29721707 -0.26620755 0.089491
0003c0 83 74 9b bd 96 97 95 3d 27 fb b8 3d 64 d1 c2 bd
       -0.07590582 0.07304303 0.090322785 -0.09512594
0003d0 66 43 ae bc 68 c0 fc 3d be aa 82 bd 3d 39 7d be
       -0.021272372 0.12341386 -0.06380223 -0.24728866
0003e0 d2 1f 27 bd 56 ae b8 3d 04 3f bc 3c c2 b7 6e bd
       -0.04080183 0.09017627 0.022979267 -0.058280714
0003f0 27 b8 74 3d bc e5 35 bc f1 da 11 be 7b c4 2b be
       0.059745934 -0.011102136 -0.14243676 -0.1677417

backbone.6.bias f4 [64]
000000 36 bf ea 3a b6 f0 95 ba f0 4b 71 3b 74 d1 2f bb
       0.0017909769 -0.0011439535 0.0036818944 -0.0026827725
000010 c0 23 a4 bb 79 4c bc bb 65 ed bb 3a 7d 0c c5 bb
       -0.0050091445 -0.005746421 0.0014337717 -0.0060134516
000020 2d c1 ef 3b 81 0a ba ba af 8f 77 ba 1a 18 77 3b
       0.0073167295 -0.0014193804 -0.0009443713 0.0037703575
000030 ff c1 a0 3a e3 f3 19 bb c1 02 18 bb 0f c2 51 bb
       0.0012264847 -0.0023491315 -0.0023195 -0.0032006537
000040 d9 98 8d 3b 0c 4c f3 3b 6c 4a b5 ba b6 89 4e b9
       0.0043211994 0.007424837 -0.0013831384 -0.00019696992
000050 c2 10 f3 ba 1b 01 89 3b 53 fb bf bb 7d d3 4e bb
       -0.0018544423 0.00418104 -0.0058588176 -0.0031559162
000060 f5 71 e9 39 70 2f 10 ba 80 d1 bf bb d3 3b 6f bb
       0.00044526128 -0.0005500233 -0.005853832 -0.0036504164
000070 41 4e 3e bb 6a 18 48 3c 39 1b 2e ba 87 64 e7 3b
       -0.0029038342 0.012212852 -0.000664163 0.0070615443
000080 1e 25 76 3a 0a 97 e9 bb d6 d7 51 bb c7 23 50 3b
       0.0009389686 -0.007128601 -0.0032019517 0.0031759606
000090 79 5e 81 bb fe 84 b3 bb f0 e4 06 bb b2 e8 63 3a
       -0.0039480296 -0.0054785004 -0.0020583235 0.0008694037
0000a0 57 da 5d ba e7 8f a7 b9 85 a4 80 3b 9d 72 9d ba
       -0.0008463016 -0.00031959938 0.0039258623 -0.0012012307
0000b0 a0 12 dc 3a de df 0b bb 9d 9e f1 ba 3f 37 0f 3a
       0.0016790219 -0.0021343152 -0.0018434111 0.00054632494
0000c0 e0 1a 8f 3a ab 48 9b 3b b2 ab f9 39 19 6d 29 bb
       0.0010918044 0.0047388873 0.00047620904 -0.002585238
0000d0 89 52 67 3b c9 4c 6a 3a c9 93 85 3a 90 2b 20 bc
       0.0035296998 0.00089378335 0.0010191138 -0.009776011
0000e0 f9 f4 27 ba 5d a5 db 3b 92 0c 25 bb a1 da fc b7
       -0.0006407048 0.0067030624 -0.0025184494 -3.0142548e-05
0000f0 d5 62 2c 39 c6 4a 49 bb bb c8 fc bb d7 41 63 bb
       0.00016440016 -0.0030714734 -0.0077143586 -0.0034676695

actor.weight f4 [30, 64]
000000 40 fd 90 3e 3c 05 9e 3d 31 f2 ab bc e9 45 0d be
       0.28318214 0.07715842 -0.02098951 -0.137962
000010 8f 29 e0 bd 0d a3 1f 3e e9 b3 04 bd 54 87 44 be
       -0.10945427 0.15589543 -0.03239814 -0.19192249
000020 59 0d 8b 3d 8c 64 40 be 25 3d 3a be 44 d2 cf ba
       0.06789655 -0.18788356 -0.18187387 -0.0015855511
000030 4d ff ef 3d ef ba 8b bc f7 b2 2f 3e 3f fa c3 3d
       0.11718617 -0.01705691 0.17158113 0.09569215
000040 cc 2c 6f 3c ae 66 80 bc 2f f6 1d be b4 fc 70 3e
       0.014598083 -0.015673961 -0.15425943 0.23533899
000050 88 d6 e4 3d fa 5e 36 bd cc 61 2d bd 92 f7 80 bd
       0.11173731 -0.04452417 -0.042329594 -0.0629722
000060 a1 2a 8e be ff 76 ae 3e fe 42 0a 3e 53 ec 16 3e
       -0.27766898 0.34075162 0.13502118 0.14738588
000070 31 7f ce 3d 16 37 ab 3d cf 6c 56 3d c8 d6 0c 3d
       0.100828536 0.08360116 0.05234986 0.03438452
000080 a4 0c ba 3e 46 4a 25 bd 3a 93 ee 3d 98 f0 69 3c
       0.3633777 -0.040354036 0.11649175 0.014278553
000090 94 b7 f4 bd e4 ed b7 3e ec 53 e9 bd ce 0c 87 bb
       -0.11949077 0.35923684 -0.1139296 -0.0041213995
0000a0 01 e5 0c 3e e7 6e 2a be ae 17 19 be 7b be 00 be
       0.13759233 -0.16643868 -0.1495044 -0.12572663
0000b0 d5 2e 81 3e 6e 16 13 3e 42 0b 82 3d 5c 34 b6 3d
       0.25231043 0.14364025 0.063498035 0.088967055
0000c0 5f b5 9b 3e 4d bf 1c 3e 62 6f d8 be 5d 15 ac 3c
       0.30411813 0.1530735 -0.42272478 0.02100628
0000d0 5b c1 98 3d 67 de 8d 3e de f9 63 3e b8 4f f6 3d
       0.07458755 0.27708742 0.22263286 0.12026924
0000e0 11 27 0e be 47 2d 98 bd e8 c4 9a be b0 b5 5f bd
       -0.1388209 -0.07430511 -0.30228353 -0.05461663
0000f0 a7 19 96 3e 9e c6 0d 3e 9b 53 d8 3e 4e 0e 1d bd
       0.29316446 0.13845298 0.42251286 -0.03834372
000100 d9 97 9c bd fe 8e 45 3e 68 4b 18 be 2b 23 b0 bd
       -0.0764615 0.19292828 -0.14872515 -0.08600458
000110 a7 2d 27 3d 71 a1 92 be 1e 1d ca be 84 00 5e 3d
       0.04081502 -0.28638795 -0.3947534 0.05419971
000120 9d 59 d2 ba 0e 5c a1 bd 95 0f 84 3e 70 b8 a3 be
       -0.0016048435 -0.07878886 0.25793138 -0.31976652
000130 61 09 39 3d b3 dc 1f be 0b 30 93 bd 8b 4b 05 be
       0.04517496 -0.15611534 -0.07186898 -0.13017099
000140 08 d3 29 be 33 6b 86 3e 59 de c4 3d 4e 50 78 bc
       -0.16584408 0.26253662 0.09612722 -0.015155865
000150 9b 98 15 3e db 7c 17 3e 1b db 98 3b 91 a5 70 3e
       0.14608996 0.14793722 0.0046647913 0.23500659
000160 76 fc 14 3e 0e af 4c 3e 0b 77 85 bd dc 38 d2 3d
       0.14549431 0.19988653 -0.06516846 0.10264751
000170 b5 b1 32 be 28 48 df 3b 7f 35 8e 3c 63 83 bf 3b
       -0.17450602 0.0068140216 0.017359493 0.00584452
000180 8e d8 02 3d 1d 89 14 3d 55 7d 9c 3d e7 9f f7 3d
       0.031944804 0.036263574 0.07641093 0.12091046
000190 62 82 1a be d7 f3 a4 be e4 f4 aa be 51 88 f2 bc
       -0.150888 -0.32217285 -0.33389962 -0.029606016
0001a0 c3 43 10 be 38 1c 0c 3d 3d c3 c4 3d 37 28 e9 3d
       -0.14088349 0.0342066 0.09607551 0.113846235
0001b0 84 f6 73 3e 67 cf 46 be e4 93 16 be 2b 6b 2d 3c
       0.23824507 -0.19415055 -0.14704853 0.010584633
0001c0 9a c5 81 3d c0 8a ac be c2 05 25 3e 3f c2 36 be
       0.06336518 -0.33699608 0.16115478 -0.17847537
0001d0 04 27 86 bd 58 20 88 3e a9 f7 90 3d ec c0 38 bd
       -0.065504104 0.26587176 0.070784874 -0.04510586
0001e0 f4 c3 88 be 15 1f 53 be 15 31 bd bd af e0 57 bd
       -0.26712 -0.20617326 -0.09237877 -0.05270451
0001f0 49 ac 21 bd a9 e7 f0 bc fe f6 b3 3e 12 d8 e7 3e
       -0.039470945 -0.02940734 0.35149378 0.45282036
000200 b2 ee db 3e 2f 0e d3 be d6 9d a6 bc fc e0 14 be
       0.42955548 -0.4122176 -0.020338934 -0.1453895
000210 2b 92 47 3d 2f 95 bb ba 39 af e0 3d dd 5c 7c bd
       0.04872338 -0.0014311428 0.10970921 -0.061612
000220 f5 e3 96 3d 66 56 52 3d 9b 70 11 3c 9a 47 c3 bc
       0.07367698 0.051351927 0.008876945 -0.023837853
000230 67 03 82 3e a2 1a 3d 3e 72 ae 6c 3d 40 a2 64 bd
       0.2539322 0.18467191 0.05778355 -0.055818796
000240 5f 72 1b be 59 f8 af 3e 3d 27 ad 3e d6 e7 40 be
       -0.15180348 0.34369162 0.33819 -0.18838438
000250 7f aa c6 3d b7 30 b2 be 40 97 fc bc c1 4f 93 3e
       0.09700488 -0.3480279 -0.03083384 0.28771785
000260 fe 12 98 bb c3 1a f3 bd 17 16 92 bd 92 1d 63 be
       -0.004640936 -0.11870339 -0.071331196 -0.22179249
000270 56 a2 29 3e cf 7f d4 3d 47 e0 10 be f3 20 64 bd
       0.16565832 0.1037594 -0.14148055 -0.055695485
000280 83 5b ca bc a1 3d ee bd cd 07 03 3e 22 59 04 3a
       -0.02470184 -0.116328485 0.12795945 0.0005048682
000290 87 7b d9 be 39 db 87 be 66 b5 94 3e d8 a5 e6 3d
       -0.42477056 -0.2653444 0.29044646 0.11262101
0002a0 d2 c9 fa 3c 55 8c 3b 3e 23 e7 08 be 50 0b 99 bc
       0.030613814 0.18315251 -0.13369422 -0.018682152
0002b0 a9 e4 e5 3c a3 1f 24 bd aa 4b 9d be 97 b3 e8 bd
       0.028063135 -0.040069234 -0.3072179 -0.11362379
0002c0 90 53 2e be d7 b0 4f 3e 2b 0e 5d bd 90 91 a6 3d
       -0.17024064 0.20282303 -0.05396859 0.081332326
0002d0 9e 1d 34 3d 06 4b 34 3d 98 81 e1 bd 43 e2 d7 3d
       0.043973558 0.04401686 -0.11011046 0.10541203
0002e0 0a 0f 6f be ac aa 6a 3e 96 64 3b be d1 a8 65 3d
       -0.2334558 0.22916669 -0.18300089 0.0560692
0002f0 ff a8 db 3d 7f eb 52 3e 7e f3 9e 3a 80 94 87 3d
       0.10725593 0.20597647 0.001212701 0.06620121
000300 01 3c 8f bb 4b d6 a1 bd 04 2f 0d 3e 8b 8f 30 be
       -0.0043711667 -0.07902201 0.13787466 -0.17242257
000310 2b 37 0d bc 0b 55 da bd 8e f5 3b bd a5 0f 14 be
       -0.00861911 -0.10660752 -0.045888476 -0.14459093
000320 b3 b0 a9 3d 76 9f b3 bd e9 c5 a6 3e cf aa 1e 3e
       0.08285656 -0.08770649 0.32572868 0.15494846
000330 4d 4b c8 3d f4 8f c2 3d f9 31 07 3e de 03 c3 3e
       0.097799875 0.09500113 0.13202657 0.38088888
000340 d1 b0 8b bc d4 95 cc 3e 97 f2 bb 3d 7b 64 7c 3e
       -0.017052086 0.3995806 0.0917713 0.24647705
000350 d4 64 09 3e ac ac 52 3e 43 88 bf 3e eb 83 48 3e
       0.13417369 0.20573682 0.37408647 0.19581573
000360 ac 3c 16 be 7b 23 26 be 81 40 75 3e 53 3e 1e bc
       -0.14671582 -0.16224472 0.23950388 -0.009658414
000370 25 b6 83 be ea a1 fa 3c 96 5c 86 3e a0 00 c1 3e
       -0.25724903 0.030594785 0.26242512 0.3769579
000380 91 90 6e 3d 02 61 15 3e 25 99 2a be 0d 09 e3 3d
       0.058243338 0.14587787 -0.16659983 0.11085711
000390 eb 19 d2 bd 98 cc 1a 3e 0f e1 e0 3d 64 65 17 3e
       -0.1025885 0.15117109 0.109804265 0.14784771
0003a0 dd 25 0a be d4 94 06 3e a2 a3 22 3e ff 81 98 bd
       -0.13491006 0.13142711 0.15882733 -0.0744667
0003b0 e3 40 21 be 61 43 6a 3c ff 02 f6 bc 1f af fb 3c
       -0.15747409 0.014298291 -0.030030726 0.030723153
0003c0 51 8b c9 3e 5b 11 83 bd ec c7 d2 3b 96 26 8b bc
       0.39364102 -0.06399795 0.006432524 -0.016986173
0003d0 b0 49 b0 bc 52 62 b3 3d 2f 45 ab be 8b f1 57 3d
       -0.021519512 0.087589875 -0.3345122 0.052720588
0003e0 f9 b8 a0 3d cb ba 7e be 52 db 9d bd 93 42 c5 3d
       0.07847781 -0.24875943 -0.07707848 0.09631839
0003f0 30 e3 ab bd 3f 6f 8b 3c e4 35 8b be 38 fa 5d be
       -0.08392942 0.01702082 -0.27189553 -0.21677482

actor.bias f4 [30]
000000 de be e4 39 56 a5 0c b8 d5 f6 6f 3b 64 64 0d 3b
       0.00043629756 -3.3532582e-05 0.003661563 0.002157473
000010 8d ca ab 3a cd 19 bc ba f5 e7 0b bc 68 cd 0e 3c
       0.001310663 -0.0014350951 -0.00853919 0.008715965
000020 8a ca ff 3b 8e d2 7d bc e6 e8 81 bb a9 a8 2b bb
       0.007806127 -0.015492095 -0.0039645312 -0.0026193059
000030 57 3a 56 3b c0 14 e8 3a 6f 85 d4 38 47 e2 59 ba
       0.0032688582 0.0017706379 0.00010133802 -0.0008311611
000040 87 8a 94 3b 98 ae b5 b9 0b e7 a8 3b 9e f0 f4 3b
       0.0045331153 -0.00034653093 0.0051544956 0.007474973
000050 79 e8 a4 ba 96 ba f8 3b 67 cb d0 bb b0 b7 a3 bb
       -0.0012581489 0.007590602 -0.0063719037 -0.0049962625
000060 ae c9 23 3b c6 b4 20 ba 9c 92 bb bb 60 d8 89 ba
       0.0024992037 -0.0006130453 -0.0057242643 -0.0010516755
000070 5c 4c b5 b8 8b 68 9f ba
       -8.6449756e-05 -0.0012161894

backbone.0.weight f4 [128, 170]
000000 e7 0a f4 3d f9 75 f3 3d be 32 ea 3d cc 86 8f 3c
       0.11916142 0.11887736 0.114354596 0.01752033
000010 19 7a 70 bd 2d 0b 88 bd 22 4a cd bd 41 63 3f be
       -0.05871019 -0.066427566 -0.10023905 -0.18690206
000020 6d 60 08 be 17 87 16 3e 31 ea 95 bd 53 1c 08 bd
       -0.13318034 0.1469997 -0.07320059 -0.033230137
000030 f8 96 b3 3d e6 a0 38 3d dd 11 03 3e 07 39 20 3d
       0.087690294 0.04507532 0.12799783 0.039116886
000040 5f c1 1e 3d b8 b6 10 3e ed 5f 7f 3c 40 3f 85 3d
       0.03875863 0.14132202 0.015586835 0.065062046
000050 0e 26 af bd 80 cd fa bd 15 56 f0 bc ca c6 64 3e
       -0.0855218 -0.12246227 -0.029337922 0.22341457
000060 0c bb d4 bc 62 ad 51 3e 94 8e 86 3e 8c f8 22 3c
       -0.025968097 0.20476297 0.26280653 0.0099469535
000070 b3 38 09 3d 6e b8 74 3d 18 a9 18 3e 4f 8e d3 3d
       0.03350134 0.0597462 0.14908254 0.103298776
000080 74 9a 82 3d 2f ba 38 3e 75 b3 6a 3e 39 fb e2 bb
       0.06377116 0.18039773 0.2292002 -0.0069269207
000090 06 34 18 3e 0a c8 6a bc 3e 35 a1 3d f6 b6 3d bd
       0.14863595 -0.01432992 0.07871483 -0.046317063
0000a0 cf 30 de 3d 33 95 4f be d0 83 99 3d 1b e1 d0 3d
       0.10849153 -0.20271759 0.07495844 0.101991855
0000b0 31 1f 7d 3c b4 d1 a6 3e aa b8 25 3e bf 9a 47 be
       0.015449331 0.32581866 0.16183725 -0.19492625
0000c0 21 36 27 3e fe 14 8c 3d cf bf 25 bd d8 d3 ab bd
       0.16329242 0.068399414 -0.040466126 -0.08390015
0000d0 dc fa 67 3e 6c 8d 0f 3d 47 e8 ed 3d 3e 69 e4 3d
       0.22654289 0.03504698 0.11616569 0.11152886
0000e0 a0 c8 ed bc d4 0d 6f 3e ee 18 be bc 57 19 7d 3e
       -0.02902633 0.23345119 -0.023205247 0.24716698
0000f0 f2 84 65 3d 4d e2 91 3c 48 bb bc bd cd f9 60 be
       0.05603499 0.017808104 -0.092154086 -0.21970291
000100 57 2f f5 bc a1 78 a5 bc 1e 18 cc 3d 04 70 aa bc
       -0.0299298 -0.020199122 0.099655375 -0.020805366
000110 1c 14 ca bd a4 72 4c 3e 13 40 11 3d 44 b1 bd 3c
       -0.09867117 0.19965607 0.035461497 0.023155816
000120 16 f0 3f 3e 83 2c 7e 3c 4f 0e 2d 3c 40 0c 86 bd
       0.1874393 0.015513542 0.0105624935 -0.06545305
000130 7b 41 64 bd d4 5b 8a 3e 4e 2f 18 be 73 98 01 be
       -0.05572651 0.27023184 -0.14861795 -0.12655811
000140 02 b0 6c be b2 2d e3 3c 3b 59 05 3c 08 d3 e3 bd
       -0.23114017 0.02773175 0.00813895 -0.111242354
000150 62 11 72 3c 6c 64 a5 bc 8f 81 c1 bd 74 02 d5 3d
       0.014774652 -0.020189486 -0.094485395 0.104008585
000160 0e be 05 3c da cf 0e 3e 61 a6 e4 ba e0 ca 1b 3d
       0.008162988 0.13946477 -0.0017444604 0.038035274
000170 42 3c e9 3c 53 d6 a1 bd fb 79 8c 3d 02 e1 7a bb
       0.028471116 -0.07902207 0.068592034 -0.0038281088
000180 e1 21 b5 bb d3 e3 5a bc 4f 8c f5 bd 77 f0 1f 3e
       -0.0055277203 -0.013359982 -0.11989652 0.15619074
000190 41 43 dd bd fb 7d 00 bd b9 56 38 3c e0 f2 f8 3c
       -0.10803843 -0.031370144 0.011251145 0.03038925
0001a0 cb a9 ad 3d b6 32 24 3e c0 a0 0e 3a 0b 25 31 3e
       0.08479651 0.1603497 0.0005440824 0.17299287
0001b0 76 c9 3d 3d ed 87 4e be 4e 35 f9 3b ff b6 b2 3d
       0.046334706 -0.20169039 0.0076052314 0.0872631
0001c0 65 39 91 3d 11 e9 cd bd 2d 23 84 bc 40 0a 80 bd
       0.07091025 -0.100542195 -0.016130054 -0.06251955
0001d0 72 52 6e 3e c3 55 9b 3d 95 fd 04 3d ac 26 0c bd
       0.23273638 0.07584717 0.032468397 -0.034216568
0001e0 59 15 87 bd da c6 a8 3d dd b9 6b 3d 14 0f 9b bc
       -0.065958686 0.08241053 0.0575503 -0.018928088
0001f0 99 b7 31 be 0d 8e 53 3c a6 0c 0b be b9 12 37 3e
       -0.17355193 0.0129122855 -0.13579044 0.17878236
000200 9c fe 6c 3d f4 94 74 3e 8c e6 d8 3d 5c 69 54 bd
       0.057860002 0.23884946 0.10590848 -0.05185829
000210 25 ed 23 bc 55 7e 46 3b 68 77 8c 3c c4 1b 87 3e
       -0.01000527 0.0030287702 0.017146781 0.2638837
000220 9b 5c 1e 3e 4a e2 ae 3d 41 9f d3 3d a1 72 60 3d
       0.15465014 0.08539255 0.1033311 0.05479682
000230 ae 24 15 be 62 ae 86 3d af e4 b3 bc 07 11 25 3c
       -0.14564773 0.0657623 -0.02195963 0.01007486
000240 bc 48 ec bd 6a b7 c8 bc 74 71 b9 3c bd 14 d9 b9
       -0.115373105 -0.024501521 0.022637106 -0.00041404917
000250 e0 97 0e bd ba e0 61 bc e9 d4 c5 3d 32 5f 0e be
       -0.034812808 -0.013786489 0.0965975 -0.13903502
000260 39 8b 89 3d 77 79 fd 3d a8 e8 a3 bd 77 be d8 3d
       0.06716008 0.12376683 -0.0800336 0.10583203
000270 13 8e ce 3d 11 7c 51 3d 02 90 20 3e 74 51 68 bc
       0.10085692 0.05114371 0.15679935 -0.014179576
000280 34 01 89 3d 90 16 8d bd e9 e7 52 be e3 b3 c9 3d
       0.066896826 -0.06889069 -0.20596279 0.09848764
000290 5e 23 89 3d ce da de bc 0e bb 60 bb 76 eb 8a bc
       0.06696199 -0.027203944 -0.003429118 -0.01695798
0002a0 cd d7 e5 bd 58 e7 5e 3e 9c 59 11 3d 1e 5e c0 b9
       -0.11222801 0.21767938 0.03548585 -0.00036691217
0002b0 af f5 8a 3d 26 7f 05 bd a4 a0 23 bd 23 84 07 bd
       0.06785142 -0.03259196 -0.03994812 -0.033085
0002c0 8e 37 f9 bd 47 90 0c be 4a 75 52 3e b1 90 08 be
       -0.12168799 -0.13726912 0.20552555 -0.13336445
0002d0 4a 58 0b 3e 8b 6f 2d bc 01 0b a4 3d d8 6b 0d bd
       0.13607898 -0.010585676 0.08009911 -0.034526676
0002e0 55 2b 91 3b b3 2d d2 3d 68 f8 6a 3e 20 08 0f 3e
       0.0044302144 0.10262623 0.22946322 0.13967943
0002f0 30 cb 79 bd 29 07 0a be 2a b6 0e be d0 5b df bd
       -0.06098479 -0.13479294 -0.13936678 -0.10906184
000300 25 44 8e 3d c0 42 46 3b d2 e1 32 bd 11 7a 54 3d
       0.06946591 0.0030252188 -0.04367239 0.051874224
000310 43 bc 64 bd d7 ad 0e 3e 97 a2 ac 3c 51 41 d3 bd
       -0.055843603 0.13933502 0.021073623 -0.103151925
000320 62 66 b3 3d f5 35 03 be c8 90 63 3d 69 2e 1d be
       0.08759762 -0.12813552 0.055557996 -0.15349735
000330 05 4b 8d 3d ed dd 3b bd be b4 96 3d 33 d5 fb 3c
       0.068990745 -0.04586594 0.073586926 0.03074131
000340 68 0b 0b 3e 7f 8e b9 3d 60 dd e2 3a 47 ff d8 bd
       0.1357857 0.09060382 0.0017308407 -0.10595565
000350 84 9c 8e 3c 1c e5 b5 3d 98 0e d2 bd ed 41 0c bc
       0.017408617 0.0888159 -0.1025669 -0.00856064
000360 57 f1 8f 3e 26 b4 35 3e 2e 2a 16 3e b0 bc b6 bc
       0.28113815 0.17744502 0.14664528 -0.02230677
000370 8f 7e 03 3e 33 00 20 3e c3 b0 51 3c 97 8f 98 3d
       0.12841247 0.15625076 0.012798491 0.074492626
000380 ae e0 4b bd 25 f7 52 be bc ab 05 3e 6f 96 a5 bd
       -0.049774818 -0.2060209 0.13053793 -0.080853336
000390 40 19 c1 bc 4a f6 7c bd 44 70 86 bd 48 08 bc 3d
       -0.02357161 -0.061758317 -0.06564382 0.09181267
0003a0 fe 16 21 3e bb ed 7e bb b2 ff 87 bd b5 c1 eb 3d
       0.15731427 -0.0038899023 -0.06640567 0.11511556
0003b0 50 60 27 3d 24 eb a3 3d 30 9f 65 3e 89 6a a7 3d
       0.040863335 0.08003834 0.22424006 0.08174617
0003c0 87 a7 31 be 19 11 9f 3d 7b 5e 8f 3c 53 84 06 bd
       -0.17349063 0.07766933 0.017501106 -0.032841038
0003d0 12 d7 aa bc 05 8c 2a 3c 8b a6 d5 3d d7 44 d8 3d
       -0.020854507 0.01040936 0.10432156 0.10560005
0003e0 ab 40 90 bc b3 cb 49 3e 29 c7 36 be 73 9a 99 bc
       -0.017608961 0.19706611 -0.17849411 -0.018750405
0003f0 3b f6 99 bd 2c 54 f3 bb 66 f1 49 be c7 4f cc 3c
       -0.07517668 -0.0074258056 -0.19720992 0.024940385

backbone.0.bias f4 [128]
000000 cd d3 21 3d ef 1e 28 bc cb 06 20 bb ee 8c 27 3d
       0.03950863 -0.010261281 -0.0024418111 0.040905885
000010 bc 61 2a 3d 88 69 33 bb ee 16 2c 3d 6d 30 15 3d
       0.041597113 -0.0027376134 0.042014055 0.036423136
000020 51 2e 5a bb f4 d4 34 bb a7 6e 15 3d b4 10 1a 3d
       -0.0033291767 -0.002759275 0.03648248 0.037613586
000030 0a b1 2a 3d e8 4c da 3c 0a 64 2a 3d 4b 24 3e 3d
       0.041672744 0.026648 0.04159931 0.04642133
000040 ed 37 31 3d 00 00 00 00 5e df 4e 3c 00 00 00 00
       0.043266226 0.0 0.012626497 0.0
000050 f2 f3 bf 3b ca 08 2a 3d 2e 25 1f 3d b5 85 f1 ba
       0.005857938 0.04151229 0.038853817 -0.0018426689
000060 f8 59 28 3d bf 5f 1f 3d 81 25 21 3d 07 ce 84 3c
       0.041101426 0.03890967 0.039342407 0.016211523
000070 b5 d0 ee 3c 09 79 d1 3c 7a 39 ef 3b 29 c5 25 ba
       0.029152254 0.02557041 0.007300553 -0.00063236296
000080 21 11 27 3d 28 b3 2d 3d c9 dd 41 bc 18 13 bc 3c
       0.04078782 0.042407185 -0.011832663 0.022958323
000090 e4 6e 30 3d 3d 46 2a 3d b0 71 d3 3c 0c b3 19 3d
       0.043074504 0.04157089 0.025811046 0.037524268
0000a0 ad 2e 30 3d 84 d4 1b 3d 1f a4 13 3d 8c e0 25 3d
       0.043013263 0.038044468 0.03604519 0.040497348
0000b0 e8 0f 12 3d f5 5f d7 3c c3 3c 29 3d 00 00 00 00
       0.0356597 0.026290873 0.041317713 0.0
0000c0 53 78 29 3d f9 76 22 3d 2b 29 27 3d 5b d0 ee bb
       0.041374516 0.039664242 0.040810745 -0.0072880215
0000d0 6d b8 2a 3b e4 75 26 3d e9 b5 cd 3c 8d b2 2b 3d
       0.0026049868 0.040639773 0.025111156 0.041918326
0000e0 94 0d b9 bc aa 2a c4 bb 00 00 00 00 d5 da 1e 3d
       -0.022589482 -0.0059865313 0.0 0.038782913
0000f0 26 9c 1e 3d f5 5c d6 bb d2 10 18 3d eb f8 fb 3a
       0.038723134 -0.006541843 0.037125416 0.0019223964
000100 f5 b2 1f 3d 67 9d 2e 3d 60 17 07 3d 83 7f 2c 3d
       0.038989026 0.04263058 0.032981277 0.042113792
000110 8d 25 cf 3b 8f 2e a9 3c 0f ca d7 3b 33 61 2b 3d
       0.006321615 0.020652084 0.0065853666 0.041840743
000120 ac 67 a1 3b 9d d8 14 3d d5 11 da 3c 15 22 33 3d
       0.0049256887 0.03633939 0.026619831 0.043733675
000130 ef 95 f6 3c 89 88 0f 3d da dd 2b 3d 67 a1 28 3d
       0.03010079 0.03504232 0.04195962 0.04116955
000140 63 f7 cb bc b7 30 e3 ba fa 8a 27 3d a7 80 25 3d
       -0.024898237 -0.0017333244 0.040904023 0.040405896
000150 8d 4a 18 3d 7d 0c 3b bc 9d 34 c2 3c 15 fa 2b 3d
       0.037180472 -0.011416552 0.023706729 0.041986544
000160 de 6d 2a 3d 32 1f 11 3d 0c 24 51 bb 00 00 00 00
       0.041608684 0.03543014 -0.0031912355 0.0
000170 96 11 15 3d 22 27 67 3c f4 88 1e 3d 86 63 36 3d
       0.036393724 0.014108451 0.038704827 0.044528507
000180 fd 61 1d 3d e7 26 35 3d 98 0b 8b ba 44 b7 ae bb
       0.038423527 0.044226553 -0.0010608314 -0.0053319056
000190 1d a6 28 3d c2 77 e1 3c fd 51 20 3d d8 ef 55 3c
       0.041174043 0.027522925 0.03914069 0.0130576715
0001a0 1b 86 2b 3d 47 60 21 3d 13 ac 19 3d dd a2 1b 3d
       0.04187594 0.039398458 0.03751762 0.037997115
0001b0 69 a8 2d 3d b8 35 fb 3c ee 31 2a 3d 08 be 23 3d
       0.042396937 0.030665264 0.041551523 0.03997615
0001c0 7e 4f cb 3c b8 68 29 3d 8b 6f 51 3c 8b 79 1e 3d
       0.024818178 0.041359633 0.012782942 0.03869013
0001d0 03 eb 24 3d 9e 7c 24 3d d6 b2 8c bc 4f 6c 19 3d
       0.040263187 0.040157907 -0.01717512 0.037456807
0001e0 67 9c 12 3d 3d a2 2b 3d 5a 1a f0 b9 3f ce 95 3c
       0.03579369 0.04190277 -0.00045796 0.018286822
0001f0 48 67 28 3d 00 00 00 00 5f 02 23 ba ec 30 34 3d
       0.04111412 0.0 -0.000621831 0.043991968
