result/exp_graph_rl/20250918_18/model_20250919_1203.pth (torch, 496527 bytes, 198 tensors)

op_embedding.weight f4 [32, 9]
000000 14 1d 5f 3e 0d fc 75 3e 2e 2e eb bd 0d fa 89 3e
       0.21788436 0.24021931 -0.114834175 0.26948586
000010 b0 12 d4 bd 62 08 03 3d da f6 47 be 2a ce 1e 3e
       -0.10355127 0.031990416 -0.1952776 0.15508333
000020 d5 77 84 3e 3c ee 7e be f5 3a 91 3e 2d c6 5e 3d
       0.25872675 -0.24895567 0.28365293 0.054388214
000030 de 66 76 3e 70 9a 31 3d 51 11 13 3e 3d 31 74 bd
       0.24062678 0.043360174 0.14362074 -0.05961727
000040 45 c4 70 3e 8f 9a 45 3d ce e8 11 be e6 18 9f 3d
       0.23512371 0.0482431 -0.14248964 0.07768421
000050 94 64 e4 bd de 51 14 bd 51 af 06 be 43 4d 80 3e
       -0.11151996 -0.036210887 -0.13152815 0.25058946
000060 1f ad 74 be 14 83 e7 bd 95 c2 e4 bd a8 0e 71 be
       -0.23894165 -0.11304298 -0.11169926 -0.23540747
000070 39 52 10 bc ef b9 b5 be b1 31 86 3e 7e 24 a3 be
       -0.008808666 -0.3549342 0.26209787 -0.3186378
000080 99 a3 65 3e 4a d8 af 3c 98 ba 0c be 46 94 27 3e
       0.22425689 0.02146544 -0.13743055 0.16365156
000090 35 22 ed 3c 38 4a 76 3e 48 34 b7 3c e0 ce 04 be
       0.028946975 0.2405175 0.022363797 -0.12969542
0000a0 f1 c0 85 3d e1 9e f0 bd 67 b1 e6 3d fd bf 8b 3e
       0.06530941 -0.11749054 0.112643056 0.27294913
0000b0 3c c9 26 3e 63 c1 06 be 90 f0 4d 3e f0 47 a0 3d
       0.16287702 -0.13159709 0.20111299 0.07826221
0000c0 c1 de 38 3e 37 91 20 be 9b ee 8e be ea fc a0 bd
       0.18053724 -0.15680395 -0.27916417 -0.078607395
0000d0 56 cd 56 be aa dd 90 3e ce 0e f0 3d e3 f3 27 3e
       -0.20976767 0.28294116 0.11721574 0.16401629
0000e0 cb f6 f0 3d dd cc 94 3c 2c 99 92 3e 60 4a 5d be
       0.11765822 0.018164093 0.28632486 -0.21610403
0000f0 ed b5 32 3d 63 fc 54 be fc 53 07 3e 63 50 9e bd
       0.04363053 -0.20799403 0.13215631 -0.07730176
000100 ab 05 12 3e 82 bf 1e bd 08 0c a1 3e ec 4e 14 be
       0.14259975 -0.038756855 0.31454492 -0.14483231
000110 7e 74 19 be 54 3f 17 be ba 1c ab 3e 48 42 1e 3e
       -0.14985844 -0.14770252 0.33420354 0.15454972
000120 24 1b b1 3e 36 af 7f be 6c 71 99 be 8f 03 70 be
       0.3459102 -0.24969181 -0.29969347 -0.23438857
000130 2c 8a 4f be a5 2a 1f 3e dc 44 0e 3e 33 c5 98 3e
       -0.20267552 0.15543611 0.13893455 0.2983795
000140 bc 7f 18 be 19 58 3f be 2f b6 5f 3e 88 6d cc bd
       -0.14892477 -0.1868595 0.21846841 -0.09981829
000150 d2 5c 78 3e ba ec cf bc 39 d8 71 3e 0d 5f 56 be
       0.24254158 -0.025381435 0.23617639 -0.20934696
000160 a6 7a 03 be c5 6b 15 3e 7c 9e f6 3c fc 78 04 be
       -0.12839755 0.14591892 0.030104868 -0.12936777
000170 88 6c 29 3e 3c c5 3b 3e 67 bc 93 be 4e 54 55 be
       0.16545308 0.18336958 -0.28854677 -0.20832941
000180 02 fa 88 3e 2b 75 0c be 55 ce 2a be 2b 55 99 be
       0.2675324 -0.13716571 -0.16680272 -0.2994779
000190 54 11 2e be 2a 35 dc 3d 05 41 bc bc 20 fc 58 be
       -0.16998798 0.10752328 -0.022980222 -0.21189928
0001a0 a3 6d 3e 3d 59 c7 42 be 61 a7 79 be 32 d1 28 be
       0.046491276 -0.19021358 -0.24380256 -0.16486052
0001b0 27 73 a1 be ff 0b 74 be 96 45 9f 3e a8 bd 16 3d
       -0.31533167 -0.23832701 0.31107777 0.036801964
0001c0 35 ba 9e 3d ba f3 a2 be 5d a4 6b be bd 38 f3 bd
       0.0775036 -0.31826574 -0.23011918 -0.11876056
0001d0 ba cf b5 3c 07 01 91 be a3 1d 11 be 6a 8f 37 be
       0.022193778 -0.28321096 -0.14171462 -0.17925802
0001e0 fc 0a cf 3b 9e 38 dc bd 77 36 00 3c c2 b8 49 be
       0.006318448 -0.10752986 0.007825485 -0.19699386
0001f0 15 86 47 be 46 e6 49 be a7 04 14 be b2 cd 96 be
       -0.19484742 -0.19716749 -0.144549 -0.29453808
000200 43 17 80 3e 86 11 c8 bd 68 05 7a 3e 07 24 88 3d
       0.25017747 -0.09768967 0.24416125 0.06647497
000210 e2 cd a3 be 2c 5c 4c 3e bc cb 00 be 2f 07 1d be
       -0.31993014 0.19957036 -0.12577718 -0.15334772
000220 99 05 9e be c0 eb af be 63 67 86 3d d9 3f d4 bd
       -0.30863646 -0.3435955 0.06562688 -0.103637405
000230 5f fd ef 3d 6e e0 94 be 38 03 6c 3e ad 9c 8f be
       0.117182486 -0.29077476 0.23048103 -0.28049222
000240 a2 d1 fd bc 13 0d ca 3d 18 96 45 3e 10 7e 97 3e
       -0.03098375 0.09865775 0.19295537 0.29588366
000250 33 c6 a6 3e b3 aa 79 be a7 f2 d6 3d 5b a1 f8 bd
       0.3257309 -0.24381523 0.10495501 -0.12140151
000260 78 2f a8 bb bb a7 63 be fd 3e a9 3e d5 9e 63 be
       -0.005132612 -0.22231953 0.3305587 -0.22228558
000270 53 03 52 3e 0a 97 10 3e 6c d9 b2 3d 6b bf 41 be
       0.2050908 0.14120117 0.08732876 -0.18920676
000280 15 57 8c 3e 98 67 d9 3d ed cd c1 3c 49 a7 a0 be
       0.27410188 0.10615462 0.023657763 -0.31377628
000290 56 6b fe 3d 9c 90 8f bd ec 9e 31 be 1a 26 8b 3e
       0.124228165 -0.07010004 -0.1734578 0.27177507
0002a0 25 c3 6a 3d d0 42 43 be 87 19 45 be 07 00 ec bc
       0.05731501 -0.19068456 -0.19248019 -0.028808607
0002b0 9b 79 2a 3e a8 71 b0 bd 4b 2b 52 be 90 9e 0c be
       0.16647951 -0.08615428 -0.20524327 -0.13732362
0002c0 88 7b 83 be 03 f6 d7 3d 47 14 7d 3e 07 58 ab be
       -0.25680184 0.1054497 0.24714766 -0.33465597
0002d0 e9 d1 3a 3d 49 c7 0c 3e 9b 5f 08 3d a2 c0 1a be
       0.045610342 0.13747896 0.0332943 -0.15112546
0002e0 7a b9 07 3e 06 91 0a 3e a7 77 ab 3d b0 84 ba bd
       0.13254347 0.13531885 0.08372431 -0.091073394
0002f0 25 26 fd bd 36 1c cf 3c 02 56 70 bd 23 cf 01 be
       -0.12360791 0.025282007 -0.058675773 -0.12676673
000300 62 42 54 3e 34 60 8e 3e 41 d6 59 bd 72 44 ba bd
       0.20728448 0.27807772 -0.053182844 -0.09095086
000310 c3 99 88 bc 8f 0e 0e bc 9a d2 de 3d fd c9 ff 3d
       -0.016674882 -0.008670463 0.10880013 0.12489698
000320 d0 60 8e be a4 b6 bc bd c9 9c 9d 3e 37 66 19 3e
       -0.27808237 -0.092145234 0.3078368 0.14980398
000330 b1 09 d8 3b b7 58 36 be 3b db 2c be 75 aa 8a be
       0.006592952 -0.1780728 -0.16880505 -0.27083173
000340 95 ff 9f bd 12 85 07 3e 16 eb 75 3e b0 36 43 3e
       -0.0781242 0.13234356 0.2401546 0.1906383
000350 17 ea 84 be 68 6d 27 be f9 d2 d3 bc 44 1a b5 3e
       -0.25959846 -0.16350329 -0.025857436 0.35371602
000360 48 11 98 3d fe e2 6e bd 00 6f 24 3e 13 6b cc bd
       0.07425171 -0.058321945 0.16057968 -0.0998136
000370 08 f0 3c be 92 e8 8d 3e e3 39 f3 bd 8e 5a fb bc
       -0.1845094 0.277165 -0.118762754 -0.030682828
000380 6e 87 9b be 2a 5b 7d 3e cf b3 8f 3e 29 0e 12 3e
       -0.30376762 0.24741808 0.2806687 0.14263214
000390 9f 1e 51 be 98 d6 91 be b3 8b 6c be 2f 03 94 3e
       -0.20421837 -0.28484035 -0.23100166 0.2890868
0003a0 5c e8 28 3e 42 94 9d 3e 9c 99 55 3e d5 2a f6 3d
       0.16494888 0.30777174 0.20859379 0.12019888
0003b0 da 0b f5 3c a7 6b 5e be 96 f3 7b be 42 bd 89 be
       0.029912878 -0.21720754 -0.2460464 -0.26902205
0003c0 a9 a0 35 3e 6d 0a 00 be 7f 6f 00 bd 0a 61 4e be
       0.17737068 -0.12503977 -0.03135633 -0.20154205
0003d0 31 bc a2 bd 5e 7d 6c be ab fd 6c be 84 c2 9f 3d
       -0.07946051 -0.23094699 -0.23143642 0.07800773
0003e0 45 4d e3 bd 8f 9d 3f 3e 2c c5 c7 bd 4a 8c 88 be
       -0.11098722 0.18712448 -0.097544044 -0.26669532
0003f0 62 a2 e3 bc df 44 00 be 9d e8 a2 bd e7 d8 90 be
       -0.027787391 -0.12526272 -0.07954524 -0.28290483

op_embedding.bias f4 [32]
000000 8f 52 78 3e 6c 5e 6f bd 54 79 d9 bc 2f 16 30 be
       0.24250244 -0.058439657 -0.026547112 -0.17195962
000010 9b 60 a5 be d2 d0 9e be f0 4b 14 3e 87 a6 14 be
       -0.32300267 -0.31018692 0.14482093 -0.1451665
000020 48 40 3f be 64 dd 56 3c 90 2f 19 be 0a 9d af bd
       -0.18676865 0.013114307 -0.1495955 -0.08574875
000030 c6 6a 5f bc 1d 7c 7f bd 4e c0 14 be 74 f5 3d be
       -0.013636297 -0.062374223 -0.14526483 -0.18550664
000040 59 69 79 be fe 07 9b 3e 8d db 1a be 24 f3 9a 3d
       -0.24356593 0.30279535 -0.15122814 0.07565907
000050 f7 57 16 be 89 0a 79 3c 09 0f ad 3e e3 59 37 3e
       -0.14681993 0.015200266 0.33800533 0.17905383
000060 2e 78 85 be 20 45 23 3e a1 bb b3 3e e2 d0 96 3d
       -0.26068252 0.15944338 0.35104087 0.0736406
000070 28 0b 81 3e f5 33 9e 3e a7 5f 1d bd cd d0 43 3d
       0.25203824 0.30899015 -0.0384213 0.04780655

machine_embedding.weight f4 [32, 6]
000000 20 54 a0 be c7 b3 e9 bd 59 5e 83 3e eb 1b 17 3e
       -0.31314182 -0.11411243 0.2565792 0.14756744
000010 1d cd 95 be 3b d9 b0 be cd d8 7a be c9 11 bb be
       -0.29258052 -0.34540734 -0.24496765 -0.36537006
000020 f8 53 91 be fc 96 8c bd 29 31 9b 3e 4f fc c3 3d
       -0.28384376 -0.068647355 0.30310944 0.095696084
000030 d3 3a a3 be 4b 25 ad be 84 c6 41 3e ed d1 9f be
       -0.31880817 -0.33817515 0.18923384 -0.31214848
000040 cb bc 81 bd d0 4c 3a 3e 16 4f 4e be 1f 5b 6a bd
       -0.063348375 0.18193364 -0.20147356 -0.057215806
000050 6b 9d 45 bd 06 51 e0 bd 2a 47 60 be 83 ff bf be
       -0.04824583 -0.10952954 -0.21902147 -0.37499627
000060 43 53 c3 be b4 96 83 be b4 a1 b1 3e 7e eb 82 be
       -0.3814946 -0.25700915 0.34693682 -0.2557029
000070 6e 03 a2 be 45 8c 72 3d 72 8c f5 3d c1 d3 6d 3e
       -0.31643242 0.059215803 0.119896784 0.23225309
000080 72 69 a3 3e 72 55 6f 3e 8a 34 c9 be 91 d1 3f 3d
       0.31916386 0.23372439 -0.39297897 0.046830717
000090 67 8a 68 3e 40 78 56 bd 9b 2f 82 be ad 60 bb 3e
       0.22709046 -0.052360773 -0.25426945 0.36597195
0000a0 88 b3 29 be 52 7f 79 be cb 8d b1 be c5 b4 18 3d
       -0.16572392 -0.24364975 -0.34678492 0.03728177
0000b0 3f 84 4b 3e ce 25 da 3d 48 57 cb 3d 47 37 94 be
       0.19874667 0.10651742 0.09928757 -0.28948423
0000c0 98 28 bc be a4 6b 69 bc 90 0b a6 3e 41 68 31 3e
       -0.3674972 -0.014246855 0.32430696 0.17324926
0000d0 d1 40 87 be 53 dc 6f bd 0d fa 8b be 9f 6c 30 be
       -0.26416638 -0.058559727 -0.2733921 -0.17228936
0000e0 1b b1 c5 3d 4a 21 76 3e 12 81 b8 3e ed 0f b3 be
       0.09652921 0.24036136 0.36035973 -0.34973088
0000f0 c1 99 7b 3e 6c 09 a0 be 6a 28 01 3e dd 7b a2 3e
       0.24570371 -0.31257188 0.12613073 0.31735125
000100 3a bb a6 bc a3 2e b0 3e 3d d8 c6 be 50 bd 48 be
       -0.020352948 0.3441058 -0.38836852 -0.19603467
000110 86 e4 47 3e 60 ce 09 be 72 e1 fe bd 61 41 56 be
       0.19520769 -0.13457632 -0.12445344 -0.20923378
000120 72 7b 85 3e 17 99 3a 3e 61 6e ec 3d 2a f2 76 be
       0.26070744 0.18222462 0.115444906 -0.24115816
000130 fd be b0 be 87 f2 e8 3c 2e 8a fc 3d 29 3f 30 be
       -0.34520712 0.028435959 0.12331043 -0.17211594
000140 0c 08 cd bd ff 69 91 3e 3a d5 37 3d d0 44 fb 3c
       -0.100113004 0.2840118 0.044881083 0.03067246
000150 99 8a af bd 43 a2 b1 be 19 f6 b9 be a8 a4 34 be
       -0.08571357 -0.34694108 -0.3632057 -0.17640936
000160 6c 05 40 be 7c bf 15 3e 86 79 f6 bd 94 29 2f be
       -0.18752068 0.14623827 -0.120348975 -0.17105705
000170 c9 d6 be 3e 45 5a f9 3d 45 b9 8d 3e e5 36 55 be
       0.37273243 0.12175421 0.27680412 -0.20821722
000180 d0 0f 42 be b2 f9 ff 3d fd cf 96 be 40 0a 93 be
       -0.18951344 0.124987975 -0.29455557 -0.28718758
000190 9f 87 31 bd fd 68 30 be 21 cb 8c be f0 45 8a 3e
       -0.04334223 -0.1722755 -0.27498725 0.27006483
0001a0 5b 21 b6 3e fd c7 bd 3d 41 b1 2b bd 91 1a b2 be
       0.35572323 0.0926666 -0.04191709 -0.34785894
0001b0 09 b6 e8 bd f1 db 0a 3e 25 8a 65 3e dd 13 af bc
       -0.113628455 0.13560463 0.22415979 -0.021371776
0001c0 02 01 03 be 98 f5 84 3e 6d 2b b0 be 79 48 70 3e
       -0.12793353 0.25968623 -0.3440813 0.23465146
0001d0 c7 cb 37 be 51 0d 7d bc b8 b0 d0 bd 97 45 e9 3c
       -0.17948829 -0.015445069 -0.101899564 0.028475566
0001e0 f6 f8 10 be fd 1d 8c 3e 4c 26 03 bd d8 f5 97 3e
       -0.14157471 0.2736663 -0.032018945 0.2967975
0001f0 9c 40 bd 3e 23 c1 60 be 77 65 a4 be df 5e 99 3e
       0.36963356 -0.21948676 -0.32108662 0.29955193
000200 ba 9f 95 3e d7 9e ac be cb 3d 6c bd e3 92 da be
       0.29223424 -0.33714935 -0.057676118 -0.4269019
000210 b4 18 99 be de 1d df 3d 10 00 0e 3e 57 bc ee 3d
       -0.2990166 0.108943686 0.13867211 0.11657017
000220 c5 4b a4 bd 93 a8 cf 3e 58 2d 45 3c 92 a7 91 be
       -0.080222644 0.405583 0.012034737 -0.28448159
000230 dc 09 8b bd 4e 50 57 3d 9c d7 c7 3d 82 0a aa be
       -0.0678899 0.05256682 0.09757921 -0.33211142
000240 7b 96 31 3e 66 ad 3d be a0 73 a1 be 63 21 4a be
       0.1734256 -0.18523178 -0.31533527 -0.19739299
000250 1b 29 d4 3e 37 e0 bc 3e 64 b6 af 3e 1b 97 5f 3e
       0.4143761 0.36889812 0.3431884 0.21834986
000260 e5 03 94 3e 94 49 95 bd 61 30 77 be 3c e2 3d 3e
       0.2890922 -0.072894245 -0.24139549 0.18543333
000270 34 49 4b be f1 18 86 be b4 ea f4 bd 50 f6 c1 3d
       -0.19852144 -0.26190904 -0.119588286 0.094708085
000280 bc f1 60 3e 58 10 17 be 8a f7 84 be aa 36 01 3d
       0.21967214 -0.14752328 -0.25970107 0.031546272
000290 23 54 86 be b3 eb 91 be 35 d7 41 3e e6 75 ba bd
       -0.26236066 -0.28500137 0.18929751 -0.091045186
0002a0 2d af c8 3e 50 11 d5 3e ea 7b 12 3e 90 c3 25 3e
       0.3919615 0.4161477 0.14305082 0.16187882
0002b0 3a 25 eb 3d 04 07 dd 3c d8 23 b7 3c 98 81 57 3d
       0.1148171 0.026980884 0.022355959 0.052613825
0002c0 af fe 4c 3e c7 37 dc 3e fa f6 6c bd 31 ba 00 be
       0.20019029 0.43011305 -0.057852723 -0.12571026
0002d0 42 b8 98 bd fa c0 31 be 30 ac bb 3d 95 20 a7 3e
       -0.074570194 -0.17358771 0.091637015 0.32642046
0002e0 e5 3d ae 3e 03 6b 55 3e 53 60 98 be 8b 17 64 be
       0.34031597 0.20841603 -0.2976099 -0.22274606
0002f0 04 75 c4 bd 94 4b 9b bd 4b ec d3 3c e6 fb c2 be
       -0.095926315 -0.07582775 0.02586951 -0.38082808

machine_embedding.bias f4 [32]
000000 46 5a c5 3d ba 87 8d be f3 33 89 be fd 65 b3 be
       0.09636359 -0.27642614 -0.26797447 -0.35038748
000010 61 59 a2 3e a6 75 c0 be 1e 35 94 3e 7a b9 aa 3b
       0.31708816 -0.3758976 0.28946775 0.005210099
000020 e5 d2 5e bd be 01 8e 3e cc 1e 84 bd 50 8d 5c 3e
       -0.054400343 0.27735704 -0.064511865 0.21538281
000030 a0 fe 8d 3e b0 6e af be 63 a6 34 3e 9a 59 85 3d
       0.27733326 -0.34264135 0.17641596 0.06511231
000040 24 a5 84 3d fe 37 b4 3d 83 92 13 3e 87 1c 5c be
       0.064768106 0.08799742 0.14411359 -0.21495257
000050 fe 07 96 bd c8 bc b8 3e f0 72 9b 3e f8 fe 74 bd
       -0.07325743 0.3608153 0.30361128 -0.05981347
000060 f9 b6 b8 be 43 83 06 bb 14 22 88 be 70 10 9e 3e
       -0.36077097 -0.0020525015 -0.265885 0.30871916
000070 cf 7e 68 be 44 70 87 3c eb ff 8c bd 6f d0 87 3d
       -0.22704624 0.016533025 -0.0688475 0.066315524

job_embedding.weight f4 [32, 6]
000000 6f 18 c3 3e 54 4d 49 3d e8 42 7f 3e 50 e8 a0 3e
       0.3810458 0.04914601 0.24927866 0.3142724
000010 55 87 a3 3e d4 e7 f2 bd c7 b3 93 bd 85 98 5d 3e
       0.31939188 -0.11860624 -0.07212024 0.21640213
000020 86 24 b5 bd 1d 0e 54 3e b9 94 8d bd 49 74 7d be
       -0.08844857 0.20708509 -0.06913132 -0.2475139
000030 68 1d 0f 3e bd b6 1f 3d 7b 5c 22 3e 8e 07 c1 3e
       0.13976061 0.038992632 0.15855591 0.37701076
000040 d3 54 80 3e d4 47 ba 3e 79 b5 f7 3c 91 1a b2 be
       0.25064716 0.36382926 0.0302379 -0.34785894
000050 7c ff 95 be 36 41 7f be 8e c2 ae be 61 b6 44 be
       -0.29296482 -0.2492722 -0.34132808 -0.19210197
000060 53 5c b7 be dc b5 bd be 82 3e 6b be 5a 7a c4 be
       -0.35812625 -0.3705281 -0.22973064 -0.38374597
000070 f2 85 69 be 04 f3 0a 3e d1 a6 a4 3e db 44 04 be
       -0.22805002 0.13569266 0.3215852 -0.12916891
000080 c9 4e 00 be 32 19 4e 3e 9d 87 53 be 2d 7e 3a be
       -0.12530054 0.20126799 -0.20657201 -0.18212195
000090 f2 1e 76 3e 1b 76 b5 be 1d 68 5f 3d 86 12 b3 3e
       0.24035242 -0.3544167 0.05454265 0.3497507
0000a0 f1 65 72 3d cc a1 f2 3d d7 29 75 be 05 be cf 3b
       0.05917925 0.118472666 -0.23941742 0.0063397908
0000b0 14 58 82 3d 20 35 00 3e 8a a8 13 3e a8 f4 9d 3e
       0.06364456 0.12520266 0.14419761 0.3085072
0000c0 b8 8e 9c be ff 54 ec 3b ce 74 56 be e3 f6 a7 be
       -0.30577636 0.0072122808 -0.20942995 -0.32805547
0000d0 16 26 18 bd 48 86 af be 26 17 87 3e 10 5d bd 3c
       -0.037145697 -0.34282136 0.26384848 0.023115665
0000e0 1b 04 81 be 35 68 36 3e 6b 0c cf be 7a 1b 1a be
       -0.25198445 0.1781319 -0.40439162 -0.15049544
0000f0 20 d8 87 bd 2e a9 ab be b9 39 80 be ce ee 5a bd
       -0.066330194 -0.3352751 -0.2504404 -0.0534504
000100 50 ed a3 3e b5 3f c8 3e 63 c5 73 3e c0 c6 87 be
       0.32016993 0.39111105 0.23805766 -0.26518822
000110 1a cc 94 be 2d 16 a7 3e 17 f2 f4 3d 25 50 c3 3b
       -0.29061967 0.32634106 0.119602375 0.0059604817
000120 9b c5 59 3d 8f d0 ab be dd 50 1b be 31 c5 b7 3e
       0.053166967 -0.33557555 -0.15167566 0.35892633
000130 b6 8e e1 bd 76 2a af 3a c7 c5 a3 be c6 c9 55 be
       -0.11013548 0.0013364095 -0.3198683 -0.20877752
000140 c8 42 80 3c a1 34 68 be 5a ec e9 bc ce 05 29 3e
       0.015656844 -0.22676326 -0.028555084 0.1650612
000150 38 5e cf be b4 bb c4 3d ce 66 9c be ca 91 62 be
       -0.4050157 0.09606114 -0.30547184 -0.22125927
000160 8b 7f 08 3e 8c b5 95 3e 6a 40 06 be 64 57 46 be
       0.13329904 0.29240072 -0.1311051 -0.19369274
000170 ca bb cb be 50 f4 72 be 65 7f c0 be 03 85 e3 bd
       -0.3979171 -0.2372601 -0.37597194 -0.11109354
000180 8d 5d a3 3d e9 18 c7 be 95 45 b0 3e 74 88 73 3e
       0.07976828 -0.38886192 0.34428087 0.23782521
000190 7b d1 d0 be 6a 6c 21 be 4b 74 d2 3d 04 86 fd bd
       -0.4078482 -0.15764013 0.102760874 -0.12379077
0001a0 0e 09 c6 bd c6 8a 6b be 73 da 93 3e 8e 4f 6d be
       -0.09669696 -0.23002157 0.288776 -0.23174879
0001b0 eb cd 9d 3e c1 5b c4 b9 b9 b6 61 3d 27 71 93 3e
       0.30821165 -0.00037452395 0.0551059 0.28797266
0001c0 13 0f c1 bd 90 bb 7b be 5e 86 fb bc e7 1e bd 3e
       -0.09426703 -0.24583268 -0.03070372 0.3693764
0001d0 77 db 83 be 84 cb 09 3e cb 1c b8 be 79 b9 72 3e
       -0.25753376 0.13456541 -0.35959467 0.23703565
0001e0 9b 27 2f 3e 0a ff 36 3d 65 55 54 3e 88 e0 ec 3c
       0.17104952 0.044676818 0.207357 0.028915659
0001f0 ba a4 7d 3e e5 29 96 be 48 c7 af bd 08 56 22 3e
       0.2476987 -0.29328838 -0.08582932 0.15853131
000200 7b 15 c4 3e 22 bd 41 3e 31 ef 9e be c6 e0 8c 3e
       0.38297638 0.18919805 -0.31041864 0.2751524
000210 c4 4e 85 bd 46 b0 8b bd 56 06 b6 be 43 51 3f bd
       -0.06509164 -0.06820731 -0.3555171 -0.046708357
000220 b0 c5 9a 3e af a5 9d 3d 56 5e 6e be d4 82 05 3e
       0.3022895 0.07697617 -0.23278174 0.13038188
000230 00 6b f9 bd fe c4 bb 3e 10 51 ad be 25 d3 c6 bd
       -0.12178612 0.3667373 -0.33850908 -0.097082414
000240 7e 30 d6 be 13 f6 42 be 45 dc c4 3d ca f4 b7 3e
       -0.41833872 -0.19039182 0.096123256 0.35928947
000250 6d f7 1b 3d ba 76 bf 3e 00 e6 97 3d 4b b2 71 3e
       0.03807776 0.3739527 0.07416916 0.2360317
000260 f4 99 a9 3e 37 6d b0 3e 01 b4 61 be b2 d3 b7 3e
       0.3312527 0.34458324 -0.22041322 0.35903698
000270 08 0f 6e 3e 18 11 58 be 4c 39 66 be 8c be bb be
       0.23247921 -0.21100271 -0.22482795 -0.36668813
000280 ff f8 a7 3d 78 30 a2 be a2 3c 19 3e 41 24 d5 3d
       0.08201789 -0.31677604 0.14964536 0.104073055
000290 37 42 c3 be 83 21 a8 3d db c7 69 bd d8 82 2e 3e
       -0.38136455 0.08209517 -0.057075363 0.170421
0002a0 68 d1 81 3e 44 18 c4 be 71 de c7 3e 22 ae b0 3e
       0.25355077 -0.38299763 0.39036897 0.34507853
0002b0 f8 96 30 3e d7 a4 a7 be 69 bf f3 bd 42 e2 b4 bd
       0.1724509 -0.3274295 -0.11901743 -0.08832218
0002c0 d1 6c 94 bd ac 8c 85 3e 30 01 34 3e 54 52 ac 3e
       -0.072473176 0.26083887 0.17578578 0.3365656
0002d0 14 1f 01 be bb 35 29 3e 0b a5 33 3e 27 c0 9d be
       -0.12609512 0.16524403 0.17543428 -0.30810663
0002e0 16 47 bb be 75 27 42 be d5 16 8a 3e 28 9b ca be
       -0.36577672 -0.18960364 0.26970544 -0.395715
0002f0 3a 9b bf be d6 9b 54 3e 92 90 4f 3e f4 06 a8 3e
       -0.37423116 0.20762572 0.20269993 0.32817805

job_embedding.bias f4 [32]
000000 43 dc 97 be fa 03 8e be 4c c0 3d 3e a9 2c b6 3e
       -0.29660234 -0.2773741 0.18530387 0.35580948
000010 35 23 7e 3e 01 94 63 3d cb 4c 09 3e 35 cc cb 3e
       0.24818118 0.05556107 0.134082 0.39804235
000020 60 ed 88 be 9d b0 55 be da fe 96 3e be ed 99 be
       -0.26743603 -0.20868154 0.2949131 -0.30064195
000030 7e 8a 6e be ab a6 a1 3e 68 27 d4 3d b0 82 d6 3d
       -0.23295018 0.3157247 0.10359079 0.104741454
000040 f4 7d 38 be 95 b2 3b bd 5c fc b0 3e 75 a0 51 be
       -0.18016797 -0.045824606 0.34567535 -0.20471366
000050 6f ec fa 3c af aa 2f 3e 46 3d 86 be 51 eb cc 3e
       0.030630318 0.17154954 -0.26218623 0.40023282
000060 1f 05 6f be 54 d1 c5 bd 4b 00 06 be 2b 36 94 be
       -0.23341797 -0.09659067 -0.1308605 -0.28947577
000070 31 67 c1 be c0 93 84 3e ac b1 0b 3e 2e 9b c9 be
       -0.3777404 0.25893974 0.13641995 -0.39376205

hgt_layers.0.kqv_lin.lins.op.weight f4 [96, 32]
000000 9b 26 8b 3d fe 8a 79 3d 7f b0 88 3e a3 36 c3 3d
       0.06794473 0.06092357 0.26697156 0.095319055
000010 ed 28 f4 3d 83 15 f3 3d cb 45 0e be 10 fe 26 3c
       0.119218685 0.118693374 -0.13893811 0.010192409
000020 7f e3 37 bd a1 8b 02 3e f9 a8 c4 3d 14 54 65 bd
       -0.04489469 0.12748577 0.096025415 -0.055988386
000030 18 ef 52 3e fe b0 2a 3e d3 ed 61 3c 92 42 44 bd
       0.2059902 0.1666908 0.013789612 -0.04791505
000040 7c bf 09 be 79 71 52 be b5 50 94 bd 85 76 56 3e
       -0.13451952 -0.20551099 -0.07241956 0.20943649
000050 73 d6 9e bc 86 6d c4 3d ca e6 27 3d 54 da f3 3d
       -0.019389367 0.095912024 0.040991582 0.11906877
000060 28 68 db 3d 6b ca de bd 6e c2 34 3e e5 4b 0d be
       0.107132256 -0.10878452 0.17652294 -0.13798483
000070 7a 78 1e bd a6 79 98 3b bf d9 62 3d 1a dd bc bd
       -0.038689114 0.0046531735 0.05538344 -0.09221859
000080 a2 e1 bf 3d f5 30 6b 3d 2c e0 41 be 98 e2 25 bd
       0.09369208 0.057419736 -0.18933171 -0.0404993
000090 82 b1 d7 3d 1d 46 d9 3d 20 ae ce bd e3 ce 15 bd
       0.10531904 0.10609076 -0.100918055 -0.036574256
0000a0 e1 41 e5 3d 64 c8 90 bd 1a 5b b2 3d a7 a1 b2 bd
       0.11194206 -0.070694715 0.087087825 -0.08722239
0000b0 92 a8 e7 3d e5 47 90 bd cc c3 fb 3d 26 64 67 be
       0.11311449 -0.07044963 0.12293205 -0.22596797
0000c0 c7 6d 09 3e 77 b1 58 bd e8 38 a6 bb 4d 63 62 be
       0.13420783 -0.05290362 -0.0050727017 -0.22108193
0000d0 9c cf 74 bb 3b ea 81 3d fb 04 8f bd 4d a4 28 3e
       -0.003735519 0.06343504 -0.06983372 0.16468926
0000e0 4c 2b 10 be 2c 44 5d bd 84 33 dd bd 05 a3 5e 3d
       -0.14079016 -0.054020092 -0.108008415 0.054354686
0000f0 29 cc 03 3c 6f c8 ed 3d 78 4f 0e bd 55 ed ef bc
       0.008044281 0.11610495 -0.034743756 -0.029287973
000100 42 35 4a be 12 90 c8 bd aa 9e d6 bd b9 33 a7 bd
       -0.19746879 -0.09793104 -0.104794815 -0.08164162
000110 de 9b 69 3d f2 3c ff bd 07 81 1a 3d da 03 01 bd
       0.057033412 -0.12462796 0.037720706 -0.031497814
000120 a4 84 49 3e 8d 6e e9 bd 43 d4 5c bc c7 49 e4 3d
       0.19679505 -0.11398039 -0.0134783415 0.111468844
000130 b4 48 bb bd e3 dd 97 bd 4b 9a 09 be b1 bf 2a 3e
       -0.091447264 -0.074153684 -0.13437764 0.16674687
000140 8e 81 ba 3d d8 44 0a be 57 86 33 3e ab 62 db bd
       0.09106742 -0.13502824 0.17531715 -0.10712179
000150 34 48 18 3d 18 71 61 be 48 c6 fe 3d b0 ba 04 be
       0.037178233 -0.22015798 0.12440163 -0.1296184
000160 95 2a 58 bd b3 0c 56 3d ee d7 9f bd 02 2d 24 3e
       -0.052774984 0.052258205 -0.07804857 0.16032794
000170 8e 6e aa bd 00 25 1d 3d a1 06 80 3d 69 f7 dd 3d
       -0.08321868 0.038365364 0.06251264 0.10838205
000180 d1 4a d9 bd dc 9d 99 bc 07 7d ca bd 81 fd 9d bd
       -0.10609973 -0.018752031 -0.09887128 -0.07714368
000190 a2 e3 80 be ab f5 86 b9 17 16 37 be 5b 1c a2 bd
       -0.2517367 -0.0002574151 -0.1787952 -0.079155646
0001a0 cd c1 df 3c 8c 71 36 be 9f 24 33 3e aa 4d b3 3c
       0.027314091 -0.17816752 0.17494439 0.021887619
0001b0 f5 da 41 3e ef 6c 22 3e 35 8a b3 bc d4 9b 58 3d
       0.18931182 0.15861867 -0.021916488 0.052882984
0001c0 7c 33 86 be fc 08 84 3b 9e f8 9d 3d ab 9d 63 3e
       -0.26211154 0.0040293913 0.077134356 0.22228114
0001d0 78 80 6c be 2b 12 74 bd ae c2 1d be e6 a0 4c be
       -0.23095882 -0.05958764 -0.15406296 -0.19983253
0001e0 b9 c4 72 3d 1e 37 fd 3d cb c4 28 3e 78 4e 76 bd
       0.05926964 0.123640284 0.1648132 -0.060133427
0001f0 fd 43 66 be 2d 96 46 3a b3 e1 42 be d9 80 d8 3c
       -0.22486873 0.00075754785 -0.1903141 0.026428627
000200 58 c0 4d 3e 6b c8 ee bd 98 54 0b be 50 38 d5 bc
       0.20092905 -0.116593204 -0.13606489 -0.026027828
000210 86 28 71 3c 0b e3 47 bc 8e 38 1b 3e cf d5 3f bd
       0.014719134 -0.012200127 0.15158293 -0.046834763
000220 3e 57 88 3d 0a c4 92 bd 8a 0b 49 be 97 27 46 be
       0.06657265 -0.07166298 -0.19633308 -0.1935104
000230 7a f1 be bb b7 c6 27 be d7 34 d7 3d 73 85 11 3d
       -0.005827126 -0.16384397 0.10508125 0.035527658
000240 a0 9a e7 3d 0d 27 98 3c 53 cd 3b be d7 f5 25 bd
       0.11308789 0.018573308 -0.18340044 -0.040517654
000250 09 8b c0 bd 7a e4 f5 bd ca 81 16 bd 8d 65 0b bd
       -0.09401519 -0.12006469 -0.03674487 -0.034032393
000260 01 e1 36 be f4 04 a5 bc 3a de 6d be 3a f1 0a 3e
       -0.1785927 -0.020143963 -0.23229304 0.13568583
000270 ab cb 21 bb b5 7c f6 3c cd 35 7f 3d de ef 04 3e
       -0.0024688046 0.030088762 0.062307168 0.12982127
000280 3b bd bf 3d e7 1f 1a 3e a0 b7 a6 bd 78 8b 85 bd
       0.09362265 0.15051232 -0.081404924 -0.06520742
000290 ef b8 ba 3d b3 94 ef 3d 74 db 1d 3e ab 06 90 3d
       0.091173045 0.11698284 0.15415746 0.07032522
0002a0 4c e4 78 3d 8e c3 e7 bd 4c d4 21 be c1 64 14 3d
       0.060764596 -0.11316596 -0.15803641 0.0362289
0002b0 c5 04 cd 3c 56 2e 4d be cc 73 aa 3d e0 59 73 bd
       0.025026688 -0.20037207 0.08322868 -0.059411883
0002c0 45 fd 0b 3e 08 4a 95 3d 47 20 25 be b4 c8 db 3c
       0.13670833 0.07289511 -0.16125594 0.026829101
0002d0 44 a9 cc 3d 3f 12 59 3e b4 91 55 3e 62 36 05 bd
       0.09993222 0.21198367 0.20856363 -0.032522567
0002e0 33 59 98 bd 1f cf 34 be 9d 08 3a bb 11 4b 17 be
       -0.074388884 -0.17657135 -0.0028386482 -0.1477473
0002f0 99 ae 28 3e e4 74 9d bd 9a 39 64 3e 03 be c5 3d
       0.16472854 -0.07688311 0.22287598 0.096553825
000300 d8 cd 1a be 78 5e dc bc 6b 09 80 3d 38 2f 0f bd
       -0.15117586 -0.026900515 0.06251796 -0.03495714
000310 61 91 5c be 0c cc 9a bd a1 6e 35 be a5 4a 40 bc
       -0.21539833 -0.0755845 -0.17717983 -0.011736547
000320 31 1a 5d 3e 1e cb 14 be 3b 35 14 3e 1e 47 16 3d
       0.21592022 -0.14530608 0.14473431 0.036688916
000330 3a a7 80 3d bf bc d0 3d f0 bf d2 3a cb 27 30 3d
       0.06281896 0.101922505 0.001607893 0.0430067
000340 6c 4b 11 be eb 73 e7 3d 60 ba f0 3d 9d f4 f0 3d
       -0.14188927 0.113014065 0.11754298 0.11765406
000350 9c cc 2a bd 20 c8 20 be bb 96 38 be da ab 07 3a
       -0.041699037 -0.15701342 -0.18026249 0.0005175449
000360 7c ce 9f 3d ea 4a 38 3e 08 fe 46 3e 93 d7 0e bd
       0.07803056 0.17997327 0.19432843 -0.034873556
000370 53 75 0e 3d ee f1 a1 bd 97 e7 38 be 35 aa 9a 3c
       0.034779858 -0.079074726 -0.18057095 0.01887999
000380 42 da c7 bc 05 8c 46 3e 8e 3d 06 3e 73 35 03 be
       -0.024396066 0.1938935 0.13109419 -0.12813358
000390 3a f5 d1 3d d4 da a6 3c df a7 db bd ca 25 0d 3d
       0.102518514 0.020368017 -0.10725378 0.034459867
0003a0 90 ca 78 3c a7 8e 7b 3d 80 2e d6 bd f8 5f d5 3d
       0.015185013 0.06141534 -0.10458088 0.10418695
0003b0 5b cd 27 be c3 04 17 3d 80 36 27 3c 37 1f 5d be
       -0.1638693 0.036869776 0.010205865 -0.21593939
0003c0 97 c7 73 3d b0 fb 42 bd db 0c 13 be af ae db bd
       0.059516516 -0.04760331 -0.14360373 -0.107266776
0003d0 fb 96 16 3e 58 1f 91 3d 07 e7 d1 bc 6f ae 66 3d
       0.14706032 0.070860565 -0.025622858 0.056318697
0003e0 dc b8 5d bd 9f f5 2b 3d be ce 3e bd ed bd d0 bd
       -0.054131374 0.04198229 -0.046583883 -0.101924755
0003f0 7c 48 29 3e f1 97 40 3c 83 d2 b1 3d 16 c1 f4 3c
       0.16531557 0.011754976 0.0868273 0.029877227

hgt_layers.0.kqv_lin.lins.op.bias f4 [96]
000000 95 15 03 3e 76 4b 80 bd 52 8a 05 be 20 36 9e 3d
       0.12801202 -0.06264393 -0.13041046 0.07725167
000010 7b 06 69 bb f1 a1 3d 3e 3d 21 62 bd ac 81 f6 3d
       -0.0035556841 0.18518807 -0.05520748 0.12036452
000020 41 1b 9a 3d 9e b7 ca 3c 50 cd 18 be 2f 3d 8b bd
       0.075247295 0.024745759 -0.1492207 -0.06798779
000030 d8 b3 93 bd 52 9e 11 be 12 7c de 3d 07 b4 60 3e
       -0.07212037 -0.1422055 0.10863508 0.21943675
000040 bf 74 0f 3e 7c 86 18 3e bf 14 df bc 39 4d b8 bd
       0.14009379 0.14895052 -0.027231572 -0.08999104
000050 a5 00 08 3e a8 85 25 3e 46 40 b6 bd e8 e5 ad 3d
       0.13281496 0.16164267 -0.08898978 0.08491117
000060 b4 1d d7 bd 23 5a cf bc 94 ec 26 3e 41 01 43 3e
       -0.10503712 -0.025311535 0.16301185 0.19043447
000070 ab 60 5f be 74 ac f0 3d 39 3d 1b 3e 5a a6 48 3d
       -0.2181422 0.11751643 0.15160073 0.04898677
000080 4e 2f ab 3d b0 48 a2 3d e0 8f be 3c 59 ab a9 3d
       0.08358632 0.0792402 0.023261964 0.08284635
000090 a9 36 ed bd 10 d4 03 bd a3 ca fe bc 81 c0 20 3d
       -0.11582691 -0.03218466 -0.031102484 0.039246086
0000a0 69 8d 2a be 43 b2 c8 3d 4f 87 fd bd de a0 e7 3d
       -0.16655506 0.09799626 -0.12379324 0.1130998
0000b0 29 d8 a1 bc 9a c8 c9 bc 9f 9e 5a 3d 48 2a d3 3d
       -0.019756394 -0.024631787 0.05337393 0.10310799
0000c0 1e 78 63 3d b2 3c c0 3d dc bb 8e bd 76 a7 28 bd
       0.055534475 0.09386577 -0.06969425 -0.04117533
0000d0 b9 b0 ee 3d 7d 86 29 be a2 4a 15 3d 6f fa 54 3d
       0.11654801 -0.1655521 0.03644813 0.051996645
0000e0 86 84 08 3e a0 af 2c 3e 6a 1f db bd 01 a8 fe bd
       0.13331804 0.1686387 -0.10699351 -0.12434388
0000f0 3f ce d8 bd 63 85 31 be b1 ec e6 bb 05 af e0 3d
       -0.10586213 -0.17336039 -0.007047259 0.10970882
000100 5c 93 11 3e b2 1e 74 be 1e 44 f7 3d 4b 95 1b be
       0.1421637 -0.23839834 0.12073539 -0.1519367
000110 81 2c 20 bd cc ce c4 bd e4 03 af bd 46 ba db bd
       -0.039104942 -0.09609756 -0.08545664 -0.10728888
000120 88 e5 68 bd 96 30 f0 3d 59 ef 87 3c 21 1e d7 3d
       -0.056859523 0.11728017 0.016593622 0.105037935
000130 97 53 a4 3b fa 8b 82 3d 9c 57 b8 bd dd e3 0c bd
       0.0050148475 0.06374355 -0.09001085 -0.034396995
000140 9c b5 1e be 04 f2 64 bd e5 f1 de bd ab 29 3e be
       -0.15498966 -0.055894867 -0.108859815 -0.18570583
000150 d9 1c 4f bd 53 d3 0b be 91 5f 1c 3d 56 f2 ab 3d
       -0.05056462 -0.13654833 0.038177077 0.08395831
000160 c6 fc af 3d 26 cb 3d be 2e f3 a9 bd a1 5c be bb
       0.085931346 -0.18534526 -0.08298336 -0.005809382
000170 d8 ca 48 be 39 51 9c 3d 3b ca 63 3d 6c 36 38 3d
       -0.19608629 0.076326795 0.055612784 0.044973776

hgt_layers.0.kqv_lin.lins.machine.weight f4 [96, 32]
000000 f2 6e 52 bd 78 51 3f 3b 8d 85 b1 3d b2 f7 d4 bd
       -0.051375337 0.0029192846 0.08668051 -0.10398807
000010 7e 6e 84 3d ae 96 fc 3c 0b 26 25 be 2b 1f 94 bd
       0.06466387 0.030833568 -0.16127793 -0.07232507
000020 b1 da fd bd 16 ca c3 bd 6c 9d 19 3e 42 25 94 bd
       -0.12395228 -0.09560029 0.15001458 -0.07233669
000030 ee eb 16 bd ba 77 42 be 27 03 04 3e ad fd c7 3b
       -0.036846094 -0.18990985 0.12891828 0.0061032386
000040 f4 94 f0 3d c9 f2 3e 3e 80 82 27 bd 82 b3 8c bc
       0.117471606 0.18647303 -0.04089594 -0.01717544
000050 29 ec ee 3d 9c df 46 3e 8d 4e 7d 3c a6 67 05 be
       0.11666138 0.19421238 0.0154606225 -0.1302782
000060 8a 86 68 3e cf a9 f8 3d 17 09 f2 bd 1f a6 d6 3d
       0.22707573 0.121417634 -0.1181814 0.10480904
000070 f3 3e 01 be 92 b7 9e 3d a3 ea bb 3d 38 ac ae bd
       -0.1262167 0.07749857 0.09175613 -0.08528942
000080 9a e8 39 bd 61 68 ee 3d 5f 02 96 3c f6 e4 0a be
       -0.04538784 0.116410024 0.018311678 -0.13563904
000090 7a 26 f2 3d 7f c0 96 3d 95 08 d0 bd fd 54 59 3e
       0.11823745 0.073609345 -0.10157887 0.21223827
0000a0 cc 29 d1 bd 19 c5 35 3d 6a be fd bd dc d6 e6 bd
       -0.1021305 0.04437742 -0.12389834 -0.1127145
0000b0 53 01 b0 3d 59 84 07 3e e8 72 18 be 65 c8 e3 bd
       0.085940026 0.1323408 -0.14887583 -0.111222066
0000c0 59 5c 8b bd ef 8c cb bd 06 a3 86 3c 55 06 27 3e
       -0.06804723 -0.0993899 0.016435158 0.16311009
0000d0 2c 91 66 3d 25 97 9e bd b8 40 3f bd b7 63 c7 3c
       0.05629079 -0.07743672 -0.04669258 0.02433954
0000e0 36 36 55 be 24 93 2f be ef b9 9c 3c 7b c7 21 3c
       -0.20821461 -0.17145973 0.019131629 0.00987422
0000f0 fa e7 f4 bd f7 30 a6 bd 09 4c 2f 3e ff 53 22 3d
       -0.119583085 -0.08114808 0.17118849 0.039630886
000100 3d 25 c3 bc 0f f3 9a bd b7 22 da 3d 0f 95 b8 3c
       -0.023821468 -0.07565891 0.106511526 0.022532014
000110 45 a7 00 3e ea 30 09 bd d6 e1 c6 bd c4 a9 d2 3d
       0.12563808 -0.033493914 -0.097110435 0.102862865
000120 99 a6 90 bd ab 6c 0d 3e 76 9c 04 bb 9a 71 94 3c
       -0.07063026 0.13810985 -0.002023486 0.018120576
000130 7d f1 b9 bd 18 64 2a be 2d cc c1 bd 80 69 62 3d
       -0.09079263 -0.16639745 -0.094627716 0.055276394
000140 c9 47 14 be b0 62 52 bd 02 27 b4 bc 24 2b 12 3d
       -0.14480509 -0.051363647 -0.021991257 0.035685673
000150 9d 40 39 be a5 87 60 bd 9f 21 da bc 74 4e 52 3d
       -0.18091054 -0.05481686 -0.02662736 0.05134435
000160 0c 8f 70 bd ef 95 2e 3e 33 5a e1 bc b2 c4 19 3e
       -0.05873017 0.17049383 -0.02750883 0.1501644
000170 4d 11 20 3e bc fc 91 3d 31 d1 9f 3d 6f 61 25 3e
       0.156316 0.071282834 0.07803572 0.16150449
000180 13 8e c4 bd dd 84 ba bd 37 8f b5 3d fd 5c ae bb
       -0.09597411 -0.09107373 0.08865207 -0.0053211437
000190 72 24 92 bd 90 5f d1 bd 81 fd 80 3c 62 95 0e 3e
       -0.07135858 -0.10223305 0.01574588 0.13924173
0001a0 78 05 e6 bc d6 bd 25 3d ed 40 15 3d 4c f3 f5 3c
       -0.02807878 0.040464245 0.03643887 0.03002324
0001b0 91 e9 06 be 7e 85 15 3e 91 9e ed 3d f7 4f d6 bd
       -0.13175036 0.14601704 0.1160251 -0.10464471
0001c0 ea fa 2f 3e 40 79 b0 3d 00 24 0c be 37 d1 e2 bd
       0.1718556 0.086168766 -0.13685608 -0.11075061
0001d0 de 49 bd 3c 62 c4 8b 3d af 08 77 bd 30 4e 53 3e
       0.023106512 0.068245664 -0.060311016 0.20635295
0001e0 c3 03 01 bd bd a7 22 bd a6 1c 21 3e 10 e6 70 bd
       -0.031497728 -0.03971075 0.15733585 -0.058813155
0001f0 2c 20 be 3d 7f 84 a9 bc 86 51 97 3c d6 a7 4b 3c
       0.0928348 -0.020693062 0.01847149 0.012430152
000200 e2 33 52 bd cd 9b 16 3d 7e aa 1b be ad 83 f3 bd
       -0.05131901 0.036769677 -0.15201756 -0.118903495
000210 ef 0d 31 3b 6a ad a6 bd 27 94 48 bd ce 24 fd bd
       0.0027016362 -0.08138545 -0.048969414 -0.123605356
000220 8e 6d a0 bd c4 97 5b 3e e0 92 7a bd e1 f2 c9 3c
       -0.07833396 0.21444613 -0.061175227 0.024651946
000230 fc 1f 3e 3e 3a 7d c2 3d ec 7e 0b bd e9 fc 07 bc
       0.18566889 0.09496541 -0.03405659 -0.008300045
000240 b8 e9 e2 3d 74 ca d6 3d e5 2a d5 bd d6 2c 05 be
       0.110797346 0.104878336 -0.10408572 -0.13005385
000250 51 12 a3 bc a8 f9 2f 3c f5 a7 19 bd d0 00 dd bc
       -0.019906195 0.010740675 -0.037513692 -0.026977926
000260 70 88 7c 3d 84 f6 ce bd 4e a5 21 be d3 e3 e9 3d
       0.061653554 -0.10105613 -0.15785715 0.11420407
000270 d7 2e 09 be e3 2a fc 3d 3d 52 aa 3d 79 99 4b be
       -0.13396774 0.123128675 0.08316467 -0.19882764
000280 6a 5b 2f bd 03 58 ef 3d a4 32 fb bc 3b 32 63 bd
       -0.04281179 0.11686709 -0.030663796 -0.055467825
000290 f3 d0 20 be 33 0f ff bc 9b 66 2a be 05 30 d2 3d
       -0.15704708 -0.031135177 -0.16640703 0.10263065
0002a0 ba 8d 37 be 6c 79 90 bc 55 4e b5 3d 39 ad 40 bd
       -0.17925158 -0.017636023 0.08852831 -0.047040198
0002b0 e9 74 63 3d 45 99 67 bb c0 32 51 bd bb 97 14 bd
       0.055531416 -0.0035339158 -0.05107379 -0.036277514
0002c0 d9 d6 fe 3d 4c e5 5e 3d 9a 89 12 3d 6c fc f5 3c
       0.12443323 0.054417893 0.03577576 0.03002759
0002d0 19 a3 a3 3d 53 d0 bc 3d 4e 4e b8 3c a4 ab 63 bd
       0.07990093 0.09219422 0.022498276 -0.05558361
0002e0 82 d8 83 3d f4 60 dd bd 37 e2 10 bd da 0e dd bd
       0.0643778 -0.10809508 -0.035371985 -0.10793848
0002f0 44 13 10 3e d5 2e be 3d 26 ae 7c 3d 59 07 4a be
       0.14069849 0.09286276 0.06168952 -0.19729365
000300 f9 b8 8a 3c a3 d4 a6 3c 47 36 28 3d e0 1a 24 3e
       0.016933905 0.020365065 0.041067388 0.16025877
000310 ad 83 38 3e 54 7f 02 3d d1 6c 26 3e 6b 1b 8a 3d
       0.1801898 0.03185971 0.16252448 0.06743511
000320 c1 08 f8 3d 28 3e 43 3d d9 1f 16 3d a1 b1 a0 3d
       0.12111045 0.0476667 0.036651466 0.0784638
000330 db 64 01 bd d7 c5 0e 3e ad 19 02 3e 82 f7 69 bd
       -0.031590324 0.13942657 0.12705107 -0.057120807
000340 8b fe 10 be 0f be 66 3e d2 85 d0 3d 0b b2 9f bd
       -0.141596 0.22533439 0.10181774 -0.07797631
000350 c1 0c 18 be 60 da 86 3c 57 cc cd 3d b0 58 07 3e
       -0.14848615 0.016461551 0.1004874 0.13217425
000360 73 c6 02 3b 04 b3 84 3c 07 73 19 3e 9b 99 b0 3d
       0.001995471 0.016198643 0.14985286 0.08623048
000370 78 7b 85 3d 9e 5d d2 3c 29 63 3f 3e 05 8b 93 3d
       0.065176904 0.025679406 0.1869017 0.0720425
000380 de 81 17 bd d8 41 21 3d e7 6c 07 be 9b 9b 2f be
       -0.036989085 0.039369434 -0.13225137 -0.17149203
000390 ec 96 0b 3e ac 52 b3 3d aa 36 9b 3d ad 04 17 be
       0.13631791 0.08756003 0.07578786 -0.14747877
0003a0 86 33 0f 3e ce 4c 31 bb 5b 4b 7f 3d e4 51 10 be
       0.13984498 -0.0027053836 0.062327724 -0.14093739
0003b0 19 04 50 bc 0c 35 d5 3c bd 58 bd bd 2a 4f 0f 3d
       -0.012696289 0.026026271 -0.09245441 0.034987606
0003c0 74 f1 14 be 14 34 8b bd fb 4b 01 be 8b 88 01 3e
       -0.14545232 -0.067970425 -0.1262664 0.12649743
0003d0 f1 ff de 3c 9e 66 22 3d 6c b7 f4 3d b5 35 2c 3e
       0.027221652 0.039648645 0.119490474 0.16817363
0003e0 c5 77 c3 3d e7 ab 01 3e 7a e0 ff bc 87 12 9a 3d
       0.095443286 0.12663232 -0.031234968 0.07523065
0003f0 df da d7 3d 5d f9 0f 3e bc 8e f3 bd 38 55 22 be
       0.10539793 0.14059968 -0.11892459 -0.15852821

hgt_layers.0.kqv_lin.lins.machine.bias f4 [96]
000000 78 7f 00 be f7 e7 de 3c 58 d3 ff bb 87 34 2f be
       -0.12548625 0.027210219 -0.0078071766 -0.17109881
000010 94 d5 32 3e 83 af 4b bd 86 3d e2 bd d0 42 8b 3d
       0.17464286 -0.049727928 -0.11046891 0.06799853
000020 24 cd dd 3d 8b 1b e1 bc 5b 3f cc 3c 86 17 79 bd
       0.10830143 -0.027478954 0.024932554 -0.06081345
000030 77 21 67 bd 04 dd bc 3d 95 90 4b be b8 e2 d0 3d
       -0.0564284 0.09221843 -0.19879372 0.10199493
000040 7e ff 8f 3d d6 c4 5b bc f7 11 7a 3d b4 cd 73 3d
       0.07031153 -0.013413629 0.06105229 0.059522346
000050 84 62 89 3d 40 df a1 3c 5a 11 28 3d b2 a4 ff bd
       0.067082435 0.019759774 0.041032173 -0.12482585
000060 b2 09 d7 3d 65 2f a3 3c 05 ed 26 3c 76 89 5e 3d
       0.10499896 0.01992006 0.010188346 0.05433031
000070 58 08 17 3e 62 d7 ea 3c e8 ee a5 3c 21 99 66 3d
       0.14749277 0.028667156 0.020255521 0.05629838
000080 5e 7f 73 3d 1e dd 03 be 7c 54 53 3d f0 df 0c be
       0.05944764 -0.12877318 0.051594242 -0.137573
000090 7c 30 cb bd 3c e2 51 3e 19 e6 18 3e 8a e7 14 be
       -0.09921357 0.20496458 0.14931525 -0.1454145
0000a0 88 db 93 bd b3 70 de 3d 78 0a b9 3d 74 05 34 3e
       -0.07219607 0.108613394 0.090352 0.17580205
0000b0 6c 2f c3 bd 14 90 bd 3c a2 f2 ea 3c 19 5f ce 3c
       -0.095305294 0.02313999 0.02868015 0.02519183
0000c0 ce 4b 0d 3e 91 3b 3b bd 3c 02 31 be 25 6d 56 3c
       0.13798448 -0.045711104 -0.17286009 0.0130875455
0000d0 cd ee 02 be 71 7d a7 3d d8 cd 0c be 42 c9 58 be
       -0.12786408 0.08178223 -0.13750398 -0.21170524
0000e0 8e e9 06 3e df 58 4c be 58 30 2b 3d 29 7d 41 3e
       0.13175032 -0.19955777 0.04179415 0.18895401
0000f0 90 7e 50 3d 7b e8 13 be e8 28 73 bd f4 15 81 3d
       0.05090195 -0.14444153 -0.059365183 0.06303015
000100 ef 86 24 be 45 2e 74 3d 2f 33 67 3c 48 84 f5 bd
       -0.16067098 0.05961444 0.014111324 -0.11988121
000110 d4 a3 fc bd dd d7 dc bd 03 46 94 bd f2 a7 b1 bd
       -0.12335935 -0.1078336 -0.07239916 -0.08674611
000120 68 fe 9e bc 66 e1 83 bd 7c 0c 1a be c5 55 a1 3d
       -0.01940842 -0.06439476 -0.15043825 0.07877687
000130 b2 c2 ba bc 40 03 43 be 21 ac 02 3d cd 8d 08 3e
       -0.022797916 -0.19044209 0.031902436 0.13335343
000140 6a d2 8e 3b b3 6c 03 be 9f 39 ae 3d cd 06 6c 3d
       0.0043585794 -0.12834434 0.08507084 0.057623673
000150 aa 92 01 bc 8d 05 e3 bd 86 e0 1f 3d 02 2c dd bd
       -0.007908503 -0.11085043 0.03903248 -0.107994094
000160 bb d1 0a 3e f3 4f db bd 92 c9 23 3d bb 76 11 3e
       0.13556568 -0.107086085 0.039987154 0.14205448
000170 dc a3 8a 3d fd 26 db bd b1 76 2e be 31 82 b6 bd
       0.06769535 -0.10700796 -0.17037465 -0.08911551

hgt_layers.0.kqv_lin.lins.job.weight f4 [96, 32]
000000 46 73 0f be 83 77 38 3e 22 bd 91 bd 0a 81 15 be
       -0.14008817 0.1801434 -0.07116152 -0.14600006
000010 85 78 86 bd 21 a8 c6 3d f1 35 2e 3e 95 89 97 3d
       -0.06565956 0.09700037 0.17012765 0.073992886
000020 da 5f 0b be b1 44 95 bd ea fa d4 3c da 91 9e 3c
       -0.13610783 -0.072884925 0.025998551 0.019356657
000030 d4 4f 28 3e 28 19 ac bd 47 8f f1 bd dc 4e 5d bd
       0.16436702 -0.08403236 -0.11794906 -0.054030284
000040 a7 0d a1 3d 60 89 2d be 40 39 86 3d 5c ad 84 3e
       0.07863932 -0.16946936 0.06553888 0.25913513
000050 30 ef 99 3b 99 6e ec 3c 84 32 9d 3d ac 7a 37 3e
       0.004697703 0.02886133 0.07675651 0.1791789
000060 cd da e3 bd 13 51 3e 3e 2c ae ac bd b2 f0 4d bc
       -0.11125717 0.18585615 -0.08431658 -0.012569593
000070 e4 b8 0e 3e 6d 4f c9 bd 5a c0 c5 bc a1 16 92 3d
       0.13937718 -0.098296024 -0.024139572 0.07133222
000080 7b 4b be bd 5f c3 83 3e c7 c3 a8 3d 94 0a bb bd
       -0.092917405 0.25734994 0.082404666 -0.09132877
000090 21 c2 10 3e 8d a3 fa 3d 1b 23 30 bc d0 48 42 3e
       0.14136554 0.12238226 -0.010750557 0.18973088
0000a0 7f 5b f4 bd 27 40 19 3e dc 5b 4f be 16 a6 13 3d
       -0.11931514 0.14965878 -0.20249885 0.036047064
0000b0 e5 95 4e 3d 3f ac d7 bd fb 66 68 3d bd 5e 0d 3e
       0.05043592 -0.105309 0.056738835 0.13805671
0000c0 69 66 0a be b9 73 1f be 3b 9a c7 bd bc cf 0d 3e
       -0.13515629 -0.15571488 -0.09746214 0.13848776
0000d0 bd 8a 1f 3e c5 64 9b bd c7 88 ef 3d 4d 81 96 bd
       0.15580268 -0.0758758 0.1169601 -0.07348881
0000e0 21 63 98 3d a6 dd 07 3e 50 11 45 be 98 57 1b be
       0.07440782 0.13268146 -0.19244885 -0.15170133
0000f0 dc 71 ac 3d af 18 4f bd 05 85 f5 3d a5 64 13 be
       0.084201545 -0.05056065 0.11988262 -0.14393862
000100 fa 45 eb bc 2b a3 57 3d 97 46 8e 3c 3a 46 f7 3d
       -0.02871989 0.052645843 0.017367644 0.120739415
000110 4e 1e 19 be 37 fd 95 bd d5 75 f0 bd 98 ec b5 3d
       -0.14952967 -0.073236875 -0.11741225 0.08883017
000120 b4 21 91 3d 67 5b 69 be 4d 09 12 3d 8c 7c 2e bd
       0.070865065 -0.22788773 0.0356534 -0.042599246
000130 79 3e 2b be 17 28 e4 3d c5 28 1b 3e 4e 2e 13 be
       -0.1672305 0.11140459 0.15152271 -0.14373133
000140 8a 35 17 3e c4 a5 24 3e 3a 2d 0b 3d ee 0a 1d bd
       0.14766517 0.1607886 0.03397868 -0.0383405
000150 76 7e c6 bd f3 88 56 3d 0c c3 1e 3e 8e 75 23 be
       -0.09692089 0.0523767 0.15504092 -0.15962812
000160 12 17 59 bd 15 98 b4 bc 1c 5e af 3d 15 d8 fb bd
       -0.053000517 -0.022045175 0.08562872 -0.12297074
000170 15 0c 24 3e 19 ca e5 3c e1 74 24 be 07 1e e4 bd
       0.16020234 0.02805047 -0.16060211 -0.1113854
000180 98 83 63 3d 22 9d ef ba 61 cb c6 bd da ce c4 3c
       0.05554542 -0.0018281082 -0.0970676 0.024024416
000190 13 08 80 3d 08 d5 dc 3d 12 18 05 be ab 11 05 be
       0.0625154 0.1078282 -0.12997463 -0.12995021
0001a0 75 e5 e6 3d 2b f7 97 bd 6c 7e 88 3d ba dc d6 bd
       0.11274234 -0.074201904 0.06664738 -0.10491319
0001b0 75 21 0d be f4 50 f9 bd 8e 1c 47 3e 19 84 f8 3d
       -0.13782294 -0.12173644 0.19444486 0.12134571
0001c0 ae b3 e0 3d d9 5d 40 bd dc 75 9e 3d 25 d6 0f be
       0.10971771 -0.0469645 0.07737324 -0.14046533
0001d0 ea fe 31 bd a2 64 86 bd 50 be a6 bd 86 f6 46 ba
       -0.043455996 -0.06562163 -0.08141768 -0.00075898354
0001e0 3b c3 96 bd f7 b9 93 3b ed 58 4b 3d 00 b5 a6 3c
       -0.07361456 0.0045082527 0.049645353 0.02034998
0001f0 6e 23 c4 bb ce fd fe 3d 52 a1 a7 3d 2d b1 80 bd
       -0.005985669 0.12450753 0.08185066 -0.062837936
000200 2d 77 e5 b9 16 46 41 be 5f 6f ec bd 3b 1e 32 3e
       -0.00043767077 -0.18874392 -0.1154468 0.17394345
000210 0b 6e 9d bb 92 66 0b be d7 34 06 be 76 c4 0d be
       -0.004804378 -0.13613346 -0.13106094 -0.13844475
000220 6b c6 38 3e 5f af 9e bd 02 ae 2f 3e 86 3f 74 3d
       0.1804444 -0.07748293 0.17156222 0.059630893
000230 79 5b d0 bc 5f 6d 74 3e ad 36 5c 3d ce 3b 54 bd
       -0.025434243 0.23869847 0.05376308 -0.051814847
000240 4d 34 eb 3c fb 90 9e 3d e4 98 dc 3c 7a 97 68 bd
       0.028711462 0.077424966 0.026928373 -0.056785084
000250 a0 31 0b be 08 27 09 3e 3b d5 23 bd aa 1b 54 be
       -0.13593149 0.13393795 -0.039998274 -0.20713678
000260 68 08 64 3e ff 43 d1 bd 1e 8b 87 bd 80 64 73 3d
       0.22268832 -0.10218047 -0.066183314 0.059422016
000270 ee af 22 3d b4 b5 b8 bc e2 1a 97 ba ef 8a 9c bd
       0.03971856 -0.02254758 -0.0011528397 -0.07643687
000280 22 e1 9a 3d 23 2a 38 3c 93 be d7 bd 07 fc bf 3d
       0.07562472 0.011240515 -0.10534396 0.09374242
000290 ee 51 ff bd 79 09 18 3e 0c 12 a2 3d e9 d4 34 bd
       -0.12466799 0.14847364 0.079135984 -0.04414836
0002a0 06 96 2d be 0d b8 28 3d 4e bc 2e 3e 8a 60 94 3d
       -0.1695176 0.04119115 0.1706402 0.07244976
0002b0 b2 3a 08 3e b4 f3 19 be 37 8b a9 3d 36 4a a4 bd
       0.1330364 -0.15034372 0.08278506 -0.08021967
0002c0 f6 8a 11 be 42 11 58 3d c1 bd 50 bd 2b fd 4f 3e
       -0.14213166 0.052750833 -0.050962213 0.2031142
0002d0 74 ca 1f 3e 92 85 6e 3d 39 95 1a 3e 25 ed f7 3d
       0.15604573 0.05823285 0.15095986 0.121057786
0002e0 77 f2 07 3d 64 36 f6 bd ca 5a bc bd 00 da 13 be
       0.033190217 -0.12022093 -0.09197004 -0.14438629
0002f0 f3 3f 12 be 72 90 18 3e 65 56 1c 3e aa a2 c0 bd
       -0.14282207 0.14898852 0.15267332 -0.09406026
000300 61 44 1a 3d dc 8d ab 3d 4c f9 15 be 26 e6 23 be
       0.037662867 0.08376667 -0.1464588 -0.16005763
000310 06 88 9e 3d 73 bb 3e bd fd 88 18 3e 11 ef f2 3d
       0.07740788 -0.046565484 0.14896007 0.118620045
000320 1e 61 ac 3d fb 3e 36 3e 77 d0 01 be 0a 0d c8 bd
       0.08416961 0.17797463 -0.1267718 -0.09768112
000330 e3 fc 26 3e d2 3a 05 be fc e0 1d be d6 21 65 bd
       0.16307406 -0.1301072 -0.15417856 -0.05594047
000340 43 62 d2 3b 53 9e 42 be 09 db 0d 3e d6 c0 70 3e
       0.006420405 -0.19005708 0.13853087 0.23511061
000350 9a 61 92 3d 2a 55 8e 3d d9 0b 24 be 73 ca 58 3e
       0.07147522 0.069498375 -0.16020145 0.21170978
000360 25 e1 a3 3d 01 67 e5 bc 3e c8 a0 3d d0 4d af bc
       0.08001927 -0.028003218 0.07850693 -0.021399409
000370 03 62 0f be bb 55 04 3e 92 9b 04 3e 67 e5 88 3d
       -0.14002232 0.12923329 0.1294997 0.0668438
000380 2a 86 42 3e b5 98 68 3e f0 10 c7 bd 76 21 7c bd
       0.18996492 0.22714503 -0.097200274 -0.06155535
000390 2e b3 11 be d2 52 46 3e 52 17 c9 3c 34 92 ac 3d
       -0.14228508 0.19367531 0.024547253 0.084263235
0003a0 a4 40 5b bd c7 eb 83 3e 32 ca b2 bd 6f 1e f7 3d
       -0.053528443 0.2576582 -0.08729972 0.120663516
0003b0 2d 46 be bd 72 cc 2a 3d c6 29 99 3d 97 85 b3 bd
       -0.09290729 0.04169888 0.07478671 -0.087657146
0003c0 a1 a7 0f be a7 93 1d be 83 42 26 bd 73 71 a9 3d
       -0.14028789 -0.15388356 -0.040590774 0.08273592
0003d0 cc bd a8 3c bd e8 ca bc ef b2 74 bd 84 f1 11 3d
       0.020598315 -0.024769181 -0.059740957 0.035630718
0003e0 78 ca 65 be 19 05 b2 bd 33 71 a2 bd 0c bc 35 be
       -0.22440517 -0.086923786 -0.07931747 -0.17747515
0003f0 36 e4 9f 3d e4 5a 0b 3e 68 a1 b2 3b 87 cf b6 3d
       0.078072 0.13608891 0.00545137 0.089263014

hgt_layers.0.kqv_lin.lins.job.bias f4 [96]
000000 25 0b df 3d 47 cc 8a 3d c2 44 ca 3d 3d d7 07 be
       0.108907975 0.06777244 0.09876396 -0.132657
000010 37 26 25 be 5f e0 28 be a4 52 3b 3e fd 5d 67 bd
       -0.16127859 -0.16491841 0.18293244 -0.05648612
000020 9e 1d 1d 3d 17 03 39 3e e0 8a e0 3d 78 65 b9 3d
       0.038358323 0.18067585 0.10963988 0.09052557
000030 0f 71 b1 bc 9f 6d c6 bd 6d 1a 06 be c4 14 8a bd
       -0.021660356 -0.09688877 -0.13096018 -0.06742242
000040 3f f0 64 3d e4 9e d5 3c 93 fe 37 be e0 34 27 be
       0.05589318 0.026076742 -0.17968206 -0.16328764
000050 00 33 90 3d 57 cf 14 bd ea 35 44 bd 55 c6 4e 3e
       0.070409775 -0.036330547 -0.04790298 0.20192845
000060 80 d9 d2 bc bc d7 10 bd bb fd 87 3d 4f e6 f6 bd
       -0.025738478 -0.03536199 0.06640192 -0.12055647
000070 60 10 22 be 80 98 6a 3e 7d c4 12 3c cd 19 1f be
       -0.15826559 0.22909737 0.008957979 -0.15537186
000080 26 26 ea 3d 56 7e fe bd f1 c8 2b be 77 cb 4e be
       0.114330575 -0.124264404 -0.16775872 -0.20194803
000090 c9 50 30 3e ed 62 ec 3c 14 04 1e be 56 19 4c be
       0.17218317 0.028855765 -0.15431243 -0.1993154
0000a0 f8 b1 d5 3d 06 42 e8 bd 99 c3 a4 3b 42 23 5b be
       0.104343355 -0.11340718 0.0050282 -0.21400169
0000b0 1d ca aa bc 3d 59 f9 ba 50 d3 e5 bd 2a f7 0c bd
       -0.020848328 -0.0019023787 -0.11221945 -0.0344154
0000c0 b8 fc ad bd 1b 35 a8 bd c8 a7 95 bb 0b 7c 92 3c
       -0.08495468 -0.08213254 -0.00456712 0.017881414
0000d0 37 05 2f bd c5 01 a1 bd 43 45 5d be d7 01 a9 bd
       -0.042729583 -0.07861666 -0.21608452 -0.08252304
0000e0 c4 1c 19 3e d2 33 b4 3c 09 de 02 be 83 a0 20 be
       0.1495238 0.021997366 -0.12780012 -0.1568623
0000f0 f2 4f 2d 3e da 8d 5a be 84 2e 38 3d 92 92 45 bd
       0.16925028 -0.21343175 0.044966236 -0.048235483
000100 04 f3 80 3d 13 12 8b bc 5f 9c 74 bc 28 00 18 be
       0.062963516 -0.016976392 -0.01492986 -0.1484381
000110 74 99 c8 bd 7b 82 1f be 73 b4 04 3e ce 32 6b 3c
       -0.09794894 -0.15577118 0.12959461 0.0143553745
000120 1d 31 b9 3a 57 6c 50 3d 74 df 67 bd 5d 08 14 3e
       0.0014129017 0.05088457 -0.056609586 0.14456315
000130 cb 30 e4 bc ba bf a2 3c 13 5c ba bd 0b c3 2e 3e
       -0.027855298 0.019866813 -0.09099593 0.1706659
000140 98 bc 35 bd 83 76 94 3c c4 b5 bd bd 9c 5f 7c bd
       -0.04436931 0.018122917 -0.09263185 -0.061614618
000150 d0 e6 74 bd 37 68 31 bd 25 b9 bd 3d 9c d8 5f 3e
       -0.059790432 -0.043312278 0.09263829 0.21859974
000160 60 0f 8d bd 53 22 e2 3d 68 81 0e bd ba ff aa bd
       -0.06887698 0.11041703 -0.03479138 -0.08349557
000170 0c a3 81 3e 50 04 0f 3e e5 41 4e 3e 80 4e 27 be
       0.25319707 0.13966489 0.20142324 -0.16338539
